DRQN/skiing_result/LunarLander-v2_r5_weights.pth (torch_old, 352027 bytes, 8 tensors)

lstm.weight_ih_l0 f4 [512, 8]
8.221786 4.2867713 0.51418984 -0.50792897 4.4017987 -4.4932256 -4.8557944 -2.5710485
-9.256917 4.9143496 -5.124383 1.2485076 0.22710185 1.8629872 -3.4614205 -1.8977654
0.16534324 5.2009954 -0.47877234 -7.684486 -4.724934 1.2757398 -3.1166694 -0.6864126
2.3015695 0.43347508 -1.7176967 4.9348745 1.9055107 -2.0402517 4.1978426 4.6567783
0.0031004334 -1.339092 0.0063320715 1.1058217 0.07018011 -1.9045835 0.51672554 0.8532504
4.9776206 9.013652 1.2562715 -7.4428473 -2.2251742 2.4660518 -3.6520183 -7.7900367
0.3093935 -3.476996 1.5687501 0.56676567 -0.44998783 -2.8331301 -0.6138452 -0.02578721
-3.4571972 -1.6439955 -1.745452 -0.2733862 -0.8149146 -3.5019336 1.096321 3.6737297
-2.3360257 -1.0389336 -4.421699 -1.3767525 -1.7886599 0.6109896 -1.1916529 0.120207086
2.3755403 -10.36279 -3.9190545 -0.44590968 -0.5471696 -12.99584 0.9922757 6.362272
0.39176533 -2.763694 1.4178392 2.0113866 2.4619064 -0.37018335 -1.86132 -0.72991306
0.98649836 10.548749 0.104507945 -6.6625247 -3.7832577 4.2828546 -3.7957647 -2.4580886
-8.4390745 -1.8472817 -1.4718755 -4.481228 -5.2923117 -1.6819199 -2.33528 7.64723
1.1026115 -2.6680639 -2.2865393 -1.3547583 -0.4630978 9.761458 0.36756197 -0.6179648
13.9449215 0.18015975 3.349507 -14.947154 -7.852068 9.278098 -4.645281 3.2802162
-1.4084617 -2.6236434 -0.13115741 4.003425 0.44050276 -0.37687677 -0.2659473 0.4185083
-0.07447102 -1.1044755 1.8382618 -5.8257804 -6.949099 -10.3248625 -7.849238 -4.798076
-2.5517354 -1.7904267 -0.97970736 0.08344284 -0.71800417 -4.2396836 0.9636267 3.528369
-2.1606288 -0.122026116 -4.5387635 -2.8493812 -6.131124 11.360145 -4.463525 -3.485408
-6.7739573 7.36939 4.3446946 0.33444872 -2.741702 -2.4881804 0.6268998 1.8608043
-5.620095 -6.0376043 2.3424706 -9.531077 -12.0926285 1.0756248 -7.0439024 6.695462
3.861085 -6.1965704 6.5197678 -8.505484 -4.38524 -6.1867113 -5.1162887 5.634102
-5.180578 0.017953731 -4.2553697 -0.40856528 -0.1935835 -1.6670519 -2.9117138 0.52261156
0.6611696 0.57323056 -6.6060634 -7.2974234 2.3185515 3.2831802 -9.494579 -15.339068
9.010239 -5.725704 0.054199982 -2.744264 -6.509071 -2.5078044 4.09635 -3.7397473
1.4609873 -6.061543 -2.8253827 -0.9157339 -5.706977 6.6467657 5.4811196 1.1980865
-4.673298 -13.89353 7.462102 -11.312817 -7.5368953 -5.7148356 -0.82953954 7.1192884
-3.298356 -0.7392358 -6.0087023 -0.07866202 -7.299682 1.0471128 -6.208479 -3.5659301
-0.9209041 -1.8924702 0.9625371 1.6479163 1.0544606 -1.785807 0.015096232 -0.118319795
0.3495013 -2.921955 5.3694954 -6.627497 -8.108727 -2.698793 -8.826252 -6.8320756
3.818563 7.57866 3.147419 -2.8091502 3.9616494 -4.372824 -2.7824569 -5.3468437
-12.625635 -3.4834485 -3.9967263 6.234099 -6.4865093 0.9446367 6.4018526 9.5060215
00000000: 6f8c 0341 3b2d 8940 f2a1 033f a207 02bf
00000010: 89db 8c40 81c8 8fc0 ab62 9bc0 0f8c 24c0
00000020: 551c 14c1 5a42 9d40 f2fa a3c0 19cf 9f3f
00000030: 638d 683e 5d76 ee3f ea87 5dc0 fae9 f2bf
00000040: bd4f 293e 8e6e a640 a621 f5be 4fe7 f5c0
00000050: a932 97c0 714b a33f 8377 47c0 bcb8 2fbf
00000060: ea4c 1340 72f0 dd3e 7cdd dbbf 7eea 9d40
00000070: c6e7 f33f 7c93 02c0 ba54 8640 5404 9540
00000080: a430 4b3b 5e67 abbf 447d cf3b 918b 8d3f
00000090: 97ba 8f3d 64c9 f3bf 2048 043f 9e6e 5a3f
000000a0: ab48 9f40 eb37 1041 81cd a03f ce2b eec0
000000b0: 4169 0ec0 cbd3 1d40 abba 69c0 fb47 f9c0
000000c0: d368 9e3e 1a87 5ec0 cecc c83f 8e17 113f
000000d0: ce64 e6be 0152 35c0 f624 1dbf b33f d3bc
000000e0: b842 5dc0 726e d2bf f96a dfbf 47f9 8bbe
000000f0: 3e9e 50bf ae1f 60c0 3f54 8c3f 631e 6b40
00000100: 7281 15c0 c7fb 84bf 8f7e 8dc0 6d39 b0bf
00000110: cff2 e4bf d069 1c3f 1588 98bf 222f f63d
00000120: da08 1840 fdcd 25c1 cad1 7ac0 464e e4be
00000130: 4f13 0cbf f6ee 4fc1 c805 7e3f bb97 cb40
00000140: 7795 c83e 5de0 30c0 c17b b53f 8fba 0040
00000150: e08f 1d40 ac88 bdbe bc3f eebf 95db 3abf
00000160: 288b 7c3f adc7 2841 4308 d63d 6733 d5c0
00000170: e520 72c0 250d 8940 cfed 72c0 5351 1dc0
00000180: 7306 07c1 ba73 ecbf 6b66 bcbf 3866 8fc0
00000190: 9e5a a9c0 2749 d7bf 3a75 15c0 1cb6 f440
000001a0: 6022 8d3f 8fc1 2ac0 a956 12c0 b868 adbf
000001b0: 281b edbe ef2e 1c41 1531 bc3e f132 1ebf
000001c0: 661e 5f41 cc7b 383e 535e 5640 8b27 6fc1
000001d0: 2444 fbc0 1773 1441 24a6 94c0 10ef 5140
000001e0: 7948 b4bf c6e9 27c0 214e 06be 0f1c 8040
000001f0: 9489 e13e fef5 c0be 3f2a 88be b846 d63e
00000200: 4384 98bd 745f 8dbf 2a4c eb3f cb6c bac0
00000210: 055f dec0 a332 25c1 f52c fbc0 d789 99c0
00000220: a24f 23c0 b42c e5bf 1ace 7abf 14e4 aa3d
00000230: 1fcf 37bf 7dab 87c0 3db0 763f ccd0 6140
00000240: be47 0ac0 d4e8 f9bd 8d3d 91c0 435c 36c0
00000250: 2b32 c4c0 27c3 3541 32d5 8ec0 ed10 5fc0
00000260: 42c4 d8c0 0bd2 eb40 bd07 8b40 dd3c ab3e
00000270: 0c78 2fc0 593e 1fc0 817c 203f d62e ee3f
00000280: d1d7 b3c0 0e34 c1c0 0aeb 1540 4b7f 18c1
00000290: 687b 41c1 13ae 893f a667 e1c0 3a41 d640
000002a0: 041c 7740 4e4a c6c0 f0a1 d040 7616 08c1
000002b0: e353 8cc0 8af9 c5c0 a3b8 a3c0 904a b440
000002c0: 4cc7 a5c0 b413 933c fd2b 88c0 782f d1be
000002d0: c13a 46be f561 d5bf 8559 3ac0 dfc9 053f
000002e0: 6942 293f 3dbf 123f df64 d3c0 7e84 e9c0
000002f0: 2663 1440 a01f 5240 cce9 17c1 d36c 75c1
00000300: f029 1041 f838 b7c0 cd00 5e3d 05a2 2fc0
00000310: 4f4a d0c0 de7f 20c0 4d15 8340 0558 6fc0
00000320: a201 bb3f 29f8 c1c0 12d3 34c0 896d 6abf
00000330: 8e9f b6c0 4eb2 d440 5565 af40 e65a 993f
00000340: a88b 95c0 e64b 5ec1 8ac9 ee40 4c01 35c1
00000350: 3f2e f1c0 efdf b6c0 b45c 54bf 36d1 e340
00000360: 4418 53c0 8f3e 3dbf 4a47 c0c0 8e19 a1bd
00000370: ff96 e9c0 cb07 863f dcab c6c0 3338 64c0
00000380: 5fc0 6bbf 773c f2bf d568 763f ecee d23f
00000390: 91f8 863f 5395 e4bf 3056 773c a651 f2bd
000003a0: d6f1 b23e 5001 3bc0 e8d2 ab40 7514 d4c0
000003b0: 59bd 01c1 06b9 2cc0 5438 0dc1 5da0 dac0
000003c0: 5663 7440 6284 f240 506f 4940 1ec9 33c0
000003d0: aa8b 7d40 2dee 8bc0 c613 32c0 5819 abc0
000003e0: 9a02 4ac1 d2f0 5ec0 5dca 7fc0 bd7d c740
000003f0: 7c91 cfc0 b6d3 713f fadb cc40 aa18 1841

lstm.weight_hh_l0 f4 [512, 128]
2.2822702 -1.2686001 0.5487953 -1.4857389 -0.14817049 0.76733154 -0.11714003 -0.51281905
0.45892635 -0.9941828 1.4986365 2.6379604 -1.3868363 0.41026995 -1.8148363 1.5328766
-0.09603431 0.26937857 0.25890055 -3.232977 1.7105751 -0.7812761 -0.25210142 -1.2308962
1.230874 0.79681927 -1.1060528 1.5178401 -2.2690532 -2.3371015 2.3699183 1.51247
-0.95780486 -2.913393 -0.5400889 0.2040209 0.1053707 0.064582944 -3.53598 -1.7271664
-2.3435392 0.28817323 -0.053193666 -1.3477602 4.664337 0.24169381 0.5300674 1.4932523
0.566061 0.39872625 0.77780807 1.0918273 0.6766473 -0.09868266 1.4212794 -0.13304326
1.8778994 -0.6430955 -4.9127507 -0.9632622 -0.024987524 2.0096726 0.8914962 1.8663685
-0.3590638 -0.41616142 -1.3010675 1.7297087 -0.38168037 -0.19340496 1.7150872 -0.47378343
-1.1558585 -2.3385987 4.0167904 -1.8826112 1.1128439 0.6534043 2.5088744 4.3605685
-1.3249245 0.18944882 -2.7449415 -0.64024204 -1.2542497 1.5632486 0.9891344 0.23428312
0.6653629 -4.3150396 -0.96512747 -0.0053006685 0.8148481 -2.5533397 2.0449727 0.8883098
-0.82409066 1.5316485 -0.4891933 -2.1905205 0.18251239 -1.3837416 -0.4098102 0.5606999
-0.9235621 0.52895284 -0.101658896 0.15570262 -1.2768945 -0.7670993 1.7232417 3.5725694
2.5084393 -0.61212754 -0.050501935 -1.0867697 -1.3891444 1.2751008 -0.32425717 1.0589137
-0.08443409 -1.5393045 1.3363638 -0.9073284 0.07072704 0.036485005 1.4576687 0.6416194
1.1413685 2.492483 3.4377542 -0.13058347 0.7511393 4.4316697 -0.33537644 -1.6651286
0.9650851 0.26372108 3.4403791 1.7800547 3.31171 -0.2367907 2.995293 -0.35205632
-1.735845 1.890592 1.5655972 -0.36738893 -3.0276613 -2.7051508 1.5580353 2.1657615
-1.0347067 -0.981118 -0.9215987 -0.11731984 -4.8172255 -1.0371938 2.4058034 -0.89171165
-3.1960466 0.74081165 1.6913633 -0.62793064 0.9076239 1.18622 -3.3563378 0.0032230068
-3.7255242 1.9021667 4.2354355 2.5637136 -2.6403675 -5.592226 1.0246309 -2.0232856
0.64389855 -0.7211207 3.3823628 4.879341 2.210933 1.812611 -4.567439 -1.338005
-0.30531788 1.7955269 -5.25899 -0.05840536 1.4337283 -0.9545019 2.4825864 -0.08488504
1.9912441 -0.5808165 -0.0044527105 -4.4168506 -2.0970974 -0.0846684 -0.65734303 -1.1086286
1.1996244 -0.4355375 3.301042 -2.6623962 -0.24681114 -3.7184584 2.1029863 0.7108987
0.52818054 -1.6765108 -0.19479813 -0.54479074 -3.219993 0.4656558 0.3244499 -1.5724998
1.7813978 -3.0966792 -1.299227 -0.49807897 -4.3236365 -1.3332183 3.090945 -1.08068
0.6097827 -1.4880736 -2.7151392 0.31668755 -0.39837608 3.9895127 -2.4140718 1.7650965
-1.081887 0.055888552 -2.0767314 2.747854 3.276075 -0.62998706 -2.3725858 2.13932
1.1563119 -1.2562631 1.6589524 -0.19022706 -1.0715413 -0.0019695328 1.7934338 -3.5352361
-0.7447162 -4.2931166 -1.818167 3.8190079 -0.20296267 0.8712034 0.71801424 -2.2934523
00000000: b710 1240 7d61 a2bf d97d 0c3f b12c bebf
00000010: 01ba 17be d76f 443f 1de7 efbd 1c48 03bf
00000020: 65f8 ea3e c482 7ebf 52d3 bf3f 58d4 2840
00000030: da83 b1bf e70e d23e 8e4c e8bf 4d35 c43f
00000040: a3ad c4bd fdeb 893e 9d8e 843e 18e9 4ec0
00000050: 20f4 da3f b601 48bf 7013 81be 028e 9dbf
00000060: 478d 9d3f 59fc 4b3f 2393 8dbf 9648 c23f
00000070: 2b38 11c0 1293 15c0 beac 1740 9e98 c13f
00000080: b332 75bf 0875 3ac0 4443 0abf dbea 503e
00000090: 98cc d73d 1044 843d 7f4d 62c0 ca13 ddbf
000000a0: 8cfc 15c0 718b 933e 9ae1 59bd 6883 acbf
000000b0: 4042 9540 957e 773e 7fb2 073f e422 bf3f
000000c0: 60e9 103f d925 cc3e 6e1e 473f ffc0 8b3f
000000d0: c238 2d3f 221a cabd 7cec b53f 7e3c 08be
000000e0: 025f f03f e8a1 24bf 4135 9dc0 5a98 76bf
000000f0: a3b2 ccbc 7a9e 0040 1839 643f 2ae5 ee3f
00000100: 36d7 b7be 1c13 d5be 6189 a6bf 1867 dd3f
00000110: 9c6b c3be f30b 46be fa87 db3f be93 f2be
00000120: 2cf3 93bf 9aab 15c0 8c89 8040 67f9 f0bf
00000130: ab71 8e3f 8145 273f 6691 2040 c789 8b40
00000140: 2097 a9bf dffe 413e 1fad 2fc0 e7e6 23bf
00000150: 418b a0bf 8818 c83f e937 7d3f eae7 6f3e
00000160: 3955 2a3f ce14 8ac0 9812 77bf 3bb1 adbb
00000170: e399 503f eb69 23c0 d5e0 0240 4568 633f
00000180: 9bf7 52bf 0f0d c43f 8b77 fabe 7d31 0cc0
00000190: 87e4 3a3e 721e b1bf a4d2 d1be 078a 0f3f
000001a0: 916e 6cbf 7469 073f 8a32 d0bd 8270 1f3e
000001b0: 4771 a3bf 9f60 44bf 2f93 dc3f faa4 6440
000001c0: 458a 2040 64b4 1cbf 1edb 4ebd 451b 8bbf
000001d0: 7ccf b1bf 8136 a33f 0905 a6be 7c8a 873f
000001e0: c8eb acbd ee07 c5bf f80d ab3f ad46 68bf
000001f0: 57d9 903d 4d71 153d e394 ba3f 2b41 243f
00000200: 5d18 923f d784 1f40 2a04 5c40 acb7 05be
00000210: aa4a 403f 3dd0 8d40 76b6 abbe ef22 d5bf
00000220: d10f 773f 7306 873e 2c2f 5c40 d5d8 e33f
00000230: 0ef3 5340 4379 72be e1b2 3f40 ba40 b4be
00000240: 2b30 debf ebfe f13f 7d65 c83f 671a bcbe
00000250: 34c5 41c0 3121 2dc0 b36d c73f d69b 0a40
00000260: 4571 84bf 8d2a 7bbf e4ed 6bbf 6245 f0bd
00000270: b626 9ac0 c4c2 84bf aff8 1940 3747 64bf
00000280: 078c 4cc0 d5a5 3d3f 987e d83f 10c0 20bf
00000290: 0a5a 683f 0fd6 973f 3dce 56c0 1539 533b
000002a0: fd6e 6ec0 337a f33f b088 8740 e213 2440
000002b0: c8fb 28c0 84f3 b2c0 1b27 833f 837d 01c0
000002c0: 89d6 243f 5e9b 38bf a278 5840 9023 9c40
000002d0: ed7f 0d40 a303 e83f 7628 92c0 bf43 abbf
000002e0: a052 9cbe d3d3 e53f a549 a8c0 753a 6fbd
000002f0: 6984 b73f 3d5a 74bf b2e2 1e40 35d8 adbd
00000300: 16e1 fe3f 64b0 14bf 0be8 91bb d756 8dc0
00000310: d836 06c0 a066 adbd a247 28bf 8be7 8dbf
00000320: 4b8d 993f c5fe debe 4644 5340 b364 2ac0
00000330: 0fbc 7cbe 39fb 6dc0 5497 0640 75fd 353f
00000340: d736 073f e897 d6bf 2979 47be 6877 0bbf
00000350: 5e14 4ec0 706a ee3e 4c1e a63e ac47 c9bf
00000360: d804 e43f fe2f 46c0 124d a6bf 3504 ffbe
00000370: 3b5b 8ac0 e6a6 aabf 0bd2 4540 b953 8abf
00000380: b81a 1c3f 3279 bebf d7c4 2dc0 df24 a23e
00000390: f3f7 cbbe 2d54 7f40 2780 1ac0 afee e13f
000003a0: 467b 8abf 65eb 643d 2be9 04c0 d7dc 2f40
000003b0: 36ab 5140 d546 21bf 72d8 17c0 9eea 0840
000003c0: 0702 943f 3bcd a0bf 8d58 d43f e2ca 42be
000003d0: 4428 89bf 4713 01bb 3d8f e53f 4f41 62c0
000003e0: b9a5 3ebf 3661 89c0 b2b9 e8bf a06a 7440
000003f0: 72d5 4fbe 3007 5f3f c8cf 373f ecc7 12c0

lstm.bias_ih_l0 f4 [512]
-2.5796 2.3333163 2.8168576 4.532459 -4.155879 3.3111687 -1.6364565 -4.380575
-3.8834472 -0.5038348 -1.7431868 3.6499023 2.686582 -2.142727 0.35785165 -1.9293438
-0.38933367 -4.3435273 -3.1281826 0.16920176 -0.6866716 2.5856106 -1.5761213 0.06979563
-1.4589174 -3.5824585 -0.1820936 -0.5516865 -1.6731023 -1.4545155 2.434925 0.30511913
1.5137738 -1.3725328 -3.7468188 4.2082286 -1.5955983 -4.4340277 -1.3839086 -1.9708953
-1.3225226 1.1141365 0.36296493 1.6318581 -1.3725244 -1.3224235 -0.73650765 -0.32392937
-3.9501817 -2.829575 1.648355 -1.5073758 3.8391912 -3.2302847 -1.480294 1.8329761
1.8818003 -2.245295 -1.3660367 -2.7553053 1.1988218 -1.6341532 0.33544144 -3.385833
-0.82663876 1.0236754 1.4070052 -1.1143646 -2.464023 -1.8028084 -2.197078 -3.6656044
-1.1051855 -0.9998175 -1.2782695 -1.3840774 -0.03690519 0.45902428 6.2472887 -1.1668235
1.8491406 1.3605536 0.30995092 0.5358044 -4.019041 1.6318579 0.21939082 2.7596495
-1.1718704 -0.63530207 1.4874849 -2.4317749 0.28928986 -0.9947212 -1.9573206 -1.0107497
3.0614457 -3.5991347 -4.3004327 -1.1961793 -3.771505 -0.20406035 -4.051204 1.1090825
-1.6042528 2.3181882 -4.1517477 -3.5592842 0.13381737 0.017464262 -1.2842224 -0.512967
-1.1824497 -1.3703703 2.2766335 -0.3969104 2.586248 0.19019687 0.6187187 0.45476595
-1.4804571 4.196748 -1.411937 -0.13382192 2.3615396 -1.4651791 1.9403887 -1.9814403
-1.2714193 -0.5451209 -0.30623025 -0.7262391 -1.6441537 -0.6092992 2.6652324 -1.5190139
-1.5121427 -0.72223353 -0.24391495 -0.7228259 -0.6430032 -1.2269561 -0.90605605 1.5854518
1.1604712 -1.5011522 -1.7770402 -0.86431724 -1.2548946 -0.9084587 0.85719144 -1.6382258
-0.7092763 -1.1499768 -1.0266595 -0.7875078 1.7714661 -0.12297633 -1.2721497 -1.2134424
-0.7843714 2.4736779 -0.8272001 -0.7126296 -1.107034 -1.3699982 2.587876 3.0399797
2.3324587 -0.9269367 -1.1221282 -0.9294014 2.6812835 1.9877268 -0.9047578 -0.47544155
-1.4024783 -1.694957 -0.82016844 0.434782 -1.4229035 -2.3322084 0.940693 -0.6649764
-0.8274944 -1.4807789 1.535121 -1.4685923 -0.8835461 2.7931042 -0.9212539 -0.9084072
-0.7001801 -0.7182871 -0.69069433 2.3641245 -0.8868013 1.7474867 -0.6285145 -1.1168469
-0.7899399 -1.1682454 2.395083 -1.370376 -0.66279906 -0.9067301 -0.47762075 1.6262544
-0.47324708 -0.6983098 -2.975614 -0.98930496 -1.6442269 -0.63035244 -0.75786513 -0.34170192
0.14994821 -2.2772608 -0.7173345 -2.904118 -0.8100812 -1.6458474 1.9342495 1.0529561
-0.35503846 -0.70799 -1.0510697 -1.0410743 -1.4702697 -1.3060596 -1.6688877 -0.70975167
-3.1983473 -0.80320674 -1.6107198 -1.2764645 -0.90852916 -0.78610766 1.5143551 -1.1401014
-1.2947729 2.518356 -0.36474904 -1.1647836 -0.5724723 -1.0545425 -0.60569865 -0.80427766
-1.7882386 -0.43257412 -2.0427418 -0.9362856 -0.4606218 -0.6610119 -0.7437291 -1.6905537
00000000: 2b18 25c0 0e55 1540 6547 3440 e709 9140
00000010: f6fc 84c0 30ea 5340 6877 d1bf ac2d 8cc0
00000020: 668a 78c0 51fb 00bf bf20 dfbf 0098 6940
00000030: f6f0 2b40 7022 09c0 5538 b73e bdf4 f6bf
00000040: be56 c7be 2dfe 8ac0 2534 48c0 3a43 2d3e
00000050: b6c9 2fbf a57a 2540 58be c9bf 03f1 8e3d
00000060: cebd babf 0047 65c0 bf76 3abe 543b 0dbf
00000070: 3728 d6bf 902d babf d0d5 1b40 9338 9c3e
00000080: 57c3 c13f 28af afbf e1cb 6fc0 cfa9 8640
00000090: 913c ccbf 8ee3 8dc0 eb23 b1bf 4c46 fcbf
000000a0: 6c48 a9bf 069c 8e3f 8ad6 b93e bae0 d03f
000000b0: e1ae afbf 2c45 a9bf c48b 3cbf 12da a5be
000000c0: c7cf 7cc0 c217 35c0 4cfd d23f b1f1 c0bf
000000d0: 4fb5 7540 fcbc 4ec0 467a bdbf f69e ea3f
000000e0: d5de f03f eab2 0fc0 4ada aebf ec56 30c0
000000f0: fe72 993f ef2b d1bf fbbe ab3e 7db1 58c0
00000100: 999e 53bf cc07 833f bf18 b43f 80a3 8ebf
00000110: 8eb2 1dc0 6dc2 e6bf ed9c 0cc0 4399 6ac0
00000120: b876 8dbf 0af4 7fbf 569e a3bf 7329 b1bf
00000130: e629 17bd 3b05 eb3e cae9 c740 795a 95bf
00000140: a4b0 ec3f 9f26 ae3f e3b1 9e3e 7a2a 093f
00000150: fc9b 80c0 b8e0 d03f fda7 603e 199e 3040
00000160: d9ff 95bf 28a3 22bf e865 be3f 33a2 1bc0
00000170: cd1d 943e 0ca6 7ebf 7b89 fabf 3f60 81bf
00000180: baee 4340 3958 66c0 259d 89c0 671c 99bf
00000190: 5760 71c0 32f5 50be 77a3 81c0 6af6 8d3f
000001a0: 2858 cdbf 325d 1440 1edb 84c0 50cb 63c0
000001b0: 6c07 093e 3611 8f3c 6661 a4bf ce51 03bf
000001c0: 835a 97bf 4b68 afbf 5db4 1140 d737 cbbe
000001d0: 1685 2540 f8c2 423e 5964 1e3f 15d7 e83e
000001e0: 9e7f bdbf c24b 8640 5aba b4bf 9d08 09be
000001f0: 7723 1740 fd8a bbbf a85e f83f d69f fdbf
00000200: debd a2bf 0b8d 0bbf 36ca 9cbe ceea 39bf
00000210: a173 d2bf 08fb 1bbf 2b93 2a40 0c6f c2bf
00000220: e48d c1bf 4ce4 38bf d7c4 79be 1e0b 39bf
00000230: dc9b 24bf e60c 9dbf 4af3 67bf 16f0 ca3f
00000240: 528a 943f c125 c0bf 0e76 e3bf e543 5dbf
00000250: 63a0 a0bf c090 68bf e670 5b3f 62b1 d1bf
00000260: 2293 35bf 7132 93bf 9469 83bf 1c9a 49bf
00000270: 67bf e23f 04db fbbd cdd5 a2bf 1552 9bbf
00000280: 90cc 48bf bd50 1e40 63c3 53bf e56e 36bf
00000290: 4ab3 8dbf 1a5c afbf c39f 2540 078f 4240
000002a0: 0147 1540 b94b 6dbf e6a1 8fbf 40ed 6dbf
000002b0: 269a 2b40 d56d fe3f 359e 67bf 136d f3be
000002c0: 6984 b3bf 5af4 d8bf 8ff6 51bf bf9b de3e
000002d0: b421 b6bf e742 15c0 42d1 703f e53b 2abf
000002e0: acd6 53bf 2a8a bdbf d87e c43f d5fa bbbf
000002f0: 1430 62bf 38c2 3240 4cd7 6bbf 608d 68bf
00000300: 013f 33bf aae1 37bf 58d1 30bf d14d 1740
00000310: 6905 63bf a5ad df3f 54e6 20bf d7f4 8ebf
00000320: 8039 4abf 1189 95bf 0a49 1940 7b68 afbf
00000330: 33ad 29bf 771f 68bf b58a f4be 1b29 d03f
00000340: 714d f2be 6ec4 32bf 7670 3ec0 1743 7dbf
00000350: 0776 d2bf c75e 21bf 7303 42bf 8ef3 aebe
00000360: 068c 193e a4be 11c0 3ca3 37bf 12dd 39c0
00000370: 7b61 4fbf 21ab d2bf 7d95 f73f 44c7 863f
00000380: 9ac7 b5be d53e 35bf 7489 86bf ec41 85bf
00000390: cc31 bcbf f62c a7bf 1d9e d5bf 49b2 35bf
000003a0: b9b1 4cc0 f59e 4dbf 112c cebf 3063 a3bf
000003b0: 5e95 68bf 5a3e 49bf 63d6 c13f d8ee 91bf
000003c0: 1ebb a5bf bf2c 2140 63c0 babe a117 95bf
000003d0: 8b8d 12bf 40fb 86bf 110f 1bbf 24e5 4dbf
000003e0: 01e5 e4bf 5b7a ddbe 48bc 02c0 6ab0 6fbf
000003f0: 9fd6 ebbe 1338 29bf 0865 3ebf 1064 d8bf

lstm.bias_hh_l0 f4 [512]
-2.7330034 2.4049008 2.8136222 4.469286 -4.1222224 3.253238 -1.5667417 -4.35256
-3.8778803 -0.5876268 -1.664149 3.6704502 2.839053 -2.1780846 0.29818696 -1.9863796
-0.2497513 -4.27311 -3.1520615 0.2875618 -0.6497589 2.5134027 -1.5941526 0.007959573
-1.5011995 -3.6938002 -0.2457882 -0.45674902 -1.5825905 -1.4401618 2.4345365 0.21522768
1.5188339 -1.4329753 -3.7518775 4.293883 -1.6019762 -4.4757543 -1.355746 -1.9144951
-1.3113368 1.1141074 0.3435136 1.680047 -1.2839514 -1.4402492 -0.5875168 -0.2613379
-3.790357 -2.7517338 1.6035352 -1.4964678 3.790809 -3.066323 -1.4017059 1.7595029
1.8944069 -2.2873247 -1.3120948 -2.7694497 1.1845206 -1.6401666 0.22277865 -3.3023727
-0.6960636 0.9329075 1.3205566 -1.079939 -2.4817605 -1.6930993 -2.183426 -3.6233206
-1.1585352 -0.8326421 -1.3487899 -1.2387651 0.057843793 0.5041956 6.2790365 -1.0575905
1.9717662 1.388216 0.2435666 0.5363978 -4.059515 1.492047 0.26423705 2.6665921
-1.2479323 -0.7091571 1.3691341 -2.338978 0.35261953 -0.95195025 -1.9024118 -0.9945333
2.9071732 -3.5516655 -4.409242 -1.2758074 -3.7741947 -0.1283145 -4.0467844 1.118407
-1.6068145 2.3916864 -4.052792 -3.5361614 0.29068118 0.12933716 -1.2670501 -0.39937147
-1.1295048 -1.2316071 2.314885 -0.4522448 2.5977495 0.328999 0.5294213 0.5467967
-1.504104 4.2726264 -1.3336294 -0.23464833 2.3218162 -1.5779117 1.9898587 -1.9912101
-1.3645982 -0.53920025 -0.46231964 -0.77328724 -1.5583255 -0.5606932 2.7085955 -1.4784073
-1.4379413 -0.69527054 -0.22632913 -0.7654328 -0.73768604 -1.2847297 -0.8531738 1.5137726
1.2381454 -1.3650513 -1.6550913 -0.8528381 -1.2289371 -0.81526625 0.87483215 -1.7083284
-0.79934055 -1.0733721 -1.0383655 -0.7137796 1.6871272 -0.10655134 -1.2427756 -1.2607133
-0.8817361 2.4989314 -0.8565839 -0.6383626 -1.0783939 -1.3640943 2.569708 3.0437233
2.4156082 -1.019669 -1.0459723 -0.78794664 2.7602062 1.9981778 -0.86187625 -0.49223796
-1.5085278 -1.5333922 -0.7802968 0.53643024 -1.4085869 -2.2568038 1.0010285 -0.62500703
-0.87218034 -1.3332028 1.5990868 -1.6294851 -0.79122716 2.7803955 -0.8878767 -0.89453316
-0.6245311 -0.8149758 -0.5909859 2.257932 -0.92354375 1.7246709 -0.7288665 -1.1267803
-0.83558613 -1.0321988 2.2368894 -1.4941833 -0.67755336 -0.8569328 -0.62811005 1.5106809
-0.4976161 -0.75660527 -2.8807096 -1.015847 -1.5721505 -0.6631622 -0.63459146 -0.26782635
0.17044212 -2.3475742 -0.64630353 -2.7957873 -0.77409947 -1.601561 2.0403936 1.0048574
-0.49317744 -0.7215488 -1.2009327 -0.9583188 -1.5192717 -1.3021435 -1.5570378 -0.7463626
-3.0865455 -0.6573217 -1.7418182 -1.2644522 -0.8187759 -0.90569305 1.4381057 -1.2643275
-1.2783948 2.5157309 -0.3661293 -1.1071075 -0.5932423 -1.1178931 -0.50329536 -0.77368927
-1.8004816 -0.5165531 -1.8935878 -0.93014956 -0.5038883 -0.53867203 -0.6951907 -1.6866204
00000000: 87e9 2ec0 e5e9 1940 6312 3440 6404 8f40
00000010: 3fe9 83c0 0d35 5040 fe8a c8bf 2c48 8bc0
00000020: 312f 78c0 b66e 16bf d602 d5bf a8e8 6a40
00000030: 0bb3 3540 bd65 0bc0 f6ab 983e b041 febf
00000040: cebe 7fbe 51bd 88c0 60bb 49c0 4d3b 933e
00000050: 9956 26bf 97db 2040 310d ccbf de68 023c
00000060: 4e27 c0bf 3967 6cc0 e7af 7bbe 02db e9be
00000070: 5392 cabf 3957 b8bf 72cf 1b40 a564 5c3e
00000080: 2669 c23f bc6b b7bf c31e 70c0 7d67 8940
00000090: 8e0d cdbf 6139 8fc0 1689 adbf 2d0e f5bf
000000a0: e2d9 a7bf 129b 8e3f 04e1 af3e c80b d73f
000000b0: 8558 a4bf 165a b8bf 8067 16bf 15ce 85be
000000c0: 3695 72c0 681c 30c0 a440 cd3f 428c bfbf
000000d0: 9d9c 7240 a33e 44c0 196b b3bf 6437 e13f
000000e0: ed7b f23f 8763 12c0 b9f2 a7bf aa3e 31c0
000000f0: 5f9e 973f fbf0 d1bf 1620 643e 135a 53c0
00000100: 3931 32bf 07d3 6e3f 0008 a93f 713b 8abf
00000110: 2ad5 1ec0 7ab7 d8bf 40bd 0bc0 7ce4 67c0
00000120: e24a 94bf 0828 55bf 26a5 acbf db8f 9ebf
00000130: 9ded 6c3d f612 013f deed c840 205f 87bf
00000140: d662 fc3f 10b1 b13f 8669 793e 5e51 093f
00000150: 8ce7 81c0 65fb be3f 144a 873e 72a9 2a40
00000160: 3fbc 9fbf 528b 35bf c93f af3f d1b1 15c0
00000170: 8c8a b43e 03b3 73bf 3b82 f3bf bc99 7ebf
00000180: 200f 3a40 7d4e 63c0 8318 8dc0 a84d a3bf
00000190: 688c 71c0 e064 03be 427f 81c0 f627 8f3f
000001a0: 19ac cdbf 6411 1940 79b0 81c0 7850 62c0
000001b0: 2ad4 943e f670 043e b32e a2bf 6b7a ccbe
000001c0: 9d93 90bf 4da5 9dbf 1327 1440 a18c e7be
000001d0: 8741 2640 8f72 a83e 2888 073f defa 0b3f
000001e0: 7b86 c0bf 5bb9 8840 5eb4 aabf a747 70be
000001f0: a398 1440 03f9 c9bf b1b3 fe3f f9df febf
00000200: 27ab aebf 0709 0abf 29b5 ecbe 27f6 45bf
00000210: 3677 c7bf 9789 0fbf a159 2d40 733c bdbf
00000220: 760e b8bf 40fd 31bf d3c2 67be 67f3 43bf
00000230: fed8 3cbf 0672 a4bf 9969 5abf 4dc3 c13f
00000240: 8c7b 9e3f 00ba aebf 08da d3bf 9953 5abf
00000250: d04d 9dbf 4ab5 50bf 00f5 5f3f 81aa dabf
00000260: 95a1 4cbf 4264 89bf 29e9 84bf 43ba 36bf
00000270: c9f3 d73f 9737 dabd 4513 9fbf 0e5f a1bf
00000280: 75b9 61bf 7eee 1f40 1549 5bbf bb6b 23bf
00000290: d008 8abf a49a aebf 1976 2440 5dcc 4240
000002a0: 5399 1a40 8484 82bf 6ce2 85bf dfb6 49bf
000002b0: 38a7 3040 4ac4 ff3f eca3 5cbf 9d06 fcbe
000002c0: 7017 c1bf 3246 c4bf 88c1 47bf 7e53 093f
000002d0: 934c b4bf 796f 10c0 b421 803f 7600 20bf
000002e0: 3647 5fbf 64a6 aabf e0ae cc3f f892 d0bf
000002f0: dd8d 4abf 00f2 3140 e34b 63bf 2000 65bf
00000300: 45e1 1fbf 41a2 50bf da4a 17bf f581 1040
00000310: 5d6d 6cbf 04c2 dc3f ff96 3abf 563a 90bf
00000320: f9e8 55bf 171f 84bf 3229 0f40 6641 bfbf
00000330: 2374 2dbf f35f 5bbf d2cb 20bf fe5d c13f
00000340: 8ac7 febe e2b0 41bf 8c5d 38c0 4607 82bf
00000350: 3a3c c9bf ffc4 29bf 9674 22bf 8920 89be
00000360: 6188 2e3e a83e 16c0 2674 25bf 2eee 32c0
00000370: 622b 46bf f3ff ccbf cf95 0240 2b9f 803f
00000380: c181 fcbe 6cb7 38bf 2ab8 99bf 6254 75bf
00000390: 7f77 c2bf a3ac a6bf 044d c7bf 9f11 3fbf
000003a0: f689 45c0 3c46 28bf e6f3 debf 92d9 a1bf
000003b0: 4c9b 51bf 80db 67bf d913 b83f 7cd5 a1bf
000003c0: 71a2 a3bf bc01 2140 4d75 bbbe b3b5 8dbf
000003d0: bade 17bf 1f17 8fbf f7d7 00bf 8010 46bf
000003e0: 2e76 e6bf d33c 04bf 1661 f2bf 481e 6ebf
000003f0: d3fe 00bf 69e6 09bf 05f8 31bf 2de3 d7bf

fc1.weight f4 [128, 128]
0.9141824 1.646757 2.7891004 -1.3609186 -0.100854695 3.7804682 0.5972574 -0.52430487
0.6323776 1.3106656 1.0886918 1.3287774 0.08892877 -0.5144907 1.4071577 0.5289407
-0.5687095 0.3129894 1.5566847 0.8263937 0.59365827 1.2890103 0.9318746 -2.3242686
-2.7513487 -3.6271899 4.579615 -0.8967501 -1.0598985 0.26305434 -0.21220915 -2.7234187
-3.334472 -0.28618264 0.11207108 1.3778912 1.8385854 0.29821005 -0.99549496 -0.39889663
-0.7062212 -1.1776365 1.4116457 4.096308 -0.6954347 0.092308566 2.3152034 -1.0243034
1.063752 -0.24576113 -2.261338 -1.4160553 2.4547617 -1.0348606 0.058862798 2.2835855
-1.8090234 -0.6110475 0.50697464 1.0384952 -2.6117804 -0.53515375 2.3964045 -0.4390942
3.895743 3.425742 0.2270973 -1.1260521 -0.5600152 0.57229495 -0.3821448 2.1504362
1.4015158 -0.3419359 -0.52498513 2.4059908 0.09529469 1.6593947 3.0493891 0.5859537
2.018693 -2.0796146 -4.000712 5.107175 0.02871715 -1.9878598 -0.30880758 -0.64802307
0.11132297 -0.9256794 3.3873687 -1.8296708 -2.374163 -0.8692719 0.70668757 -1.9266385
-1.0116131 1.0354747 -0.15968722 1.9009786 1.7701479 -1.0824059 0.19736753 5.203766
-0.79555625 -1.2349746 -0.8678724 -1.617782 1.9501742 -1.7938105 1.6572552 0.7753088
0.75038457 1.7973975 1.0797889 1.7611908 0.94989944 1.2341163 0.27955168 -0.6446124
1.6351067 -2.1647222 -0.145092 1.6087401 3.3546596 1.7555856 -0.96186197 -0.38234133
1.2518836 -0.96527636 0.6130367 0.22213808 -0.53351206 1.0855967 0.76769465 0.44337037
0.1358878 1.2235351 0.17190601 2.422847 -2.5310059 0.44867885 -1.4771178 0.46725038
0.26904795 -0.09207241 0.00593383 -2.5084896 1.3119867 -4.1238694 -0.2339763 -0.7039686
-0.8701381 1.4438618 -2.2230058 2.3353245 -0.8833239 -0.8547051 3.8987224 3.7123194
-3.129954 0.13846074 -0.9168132 -0.001304964 0.086995155 0.031185042 1.0332215 0.05685078
-0.029907558 0.2570106 0.6390549 -1.8833526 0.7543251 -1.346073 1.6819565 -1.4126155
0.08677784 -0.2316261 1.7490327 0.6423317 -2.01826 -0.7439681 -0.44076952 -0.91841066
3.5055578 0.5528863 -0.69534826 -0.03347841 1.1050055 0.8451899 1.6776423 2.4542522
-1.1575134 1.6999326 1.1366215 -0.7795564 1.1224086 0.5782887 -0.16992411 -0.58085316
-2.0131705 0.045559045 -1.1717665 -1.2406462 0.8346876 1.2284203 1.527331 0.68400306
-1.8950793 -2.9538047 -1.6129566 -0.05183141 -0.1847553 2.7415519 1.406536 -1.9819942
0.075938046 0.28384086 -0.24001707 -0.004778468 -1.9882796 0.2793159 -1.6883736 0.6863444
3.0985696 0.15627538 0.5519281 0.8643349 0.4923846 -1.3855242 0.3119439 1.654348
1.4262033 -1.867008 -0.051652085 1.6425049 3.0133014 -1.8158118 0.96554583 0.23856014
0.030302072 -0.78211814 2.3345575 2.8831174 -2.666504 0.12911332 -1.5176412 1.6798553
0.23550496 -1.1367323 1.9203477 1.870863 0.24719289 0.9437781 -0.8559983 -0.7176251
00000000: dc07 6a3f efc8 d23f 9f80 3240 9532 aebf
00000010: e88c cebd 31f3 7140 dce5 183f d838 06bf
00000020: 80e3 213f e4c3 a73f 415a 8b3f 6115 aa3f
00000030: 4920 b63d aab5 03bf be1d b43f a868 073f
00000040: f296 11bf 2640 a03e 7241 c73f 8a8e 533f
00000050: fdf9 173f 4afe a43f 558f 6e3f d1c0 14c0
00000060: 1916 30c0 e123 68c0 358c 9240 6a91 65bf
00000070: c1aa 87bf 0faf 863e 5b4d 59be 7e4c 2ec0
00000080: fd67 55c0 8886 92be 8685 e53d bd5e b03f
00000090: c456 eb3f fdae 983e c2d8 7ebf 2e3c ccbe
000000a0: eaca 34bf cbbc 96bf ceb0 b43f f514 8340
000000b0: 0208 32bf 460c bd3d 4b2c 1440 601c 83bf
000000c0: 0729 883f cea8 7bbe c3b9 10c0 4d41 b5bf
000000d0: d11a 1d40 5076 84bf 1e1a 713d 4426 1240
000000e0: 148e e7bf 9c6d 1cbf 17c9 013f 69ed 843f
000000f0: 6927 27c0 d6ff 08bf b15e 1940 f4d0 e0be
00000100: da53 7940 5b3f 5b40 328c 683e 7a22 90bf
00000110: 285d 0fbf ec81 123f 7ca8 c3be bfa0 0940
00000120: df64 b33f 3912 afbe 6d65 06bf c1fb 1940
00000130: dd29 c33d 0c67 d43f 3129 4340 1001 163f
00000140: 4432 0140 6818 05c0 d505 80c0 fa6d a340
00000150: 3b40 eb3c 3172 febf 071c 9ebe d7e4 25bf
00000160: 4cfd e33d 53f9 6cbf a6ca 5840 a732 eabf
00000170: 49f2 17c0 9a88 5ebf 7ae9 343f 179c f6bf
00000180: 8a7c 81bf 6f8a 843f 0c85 23be 4453 f33f
00000190: 3594 e23f 478c 8abf b71a 4a3e 4085 a640
000001a0: 93a9 4bbf a613 9ebf e32c 5ebf 7b13 cfbf
000001b0: 4f9f f93f 959b e5bf f020 d43f a37a 463f
000001c0: 3419 403f 1f11 e63f 8636 8a3f b36e e13f
000001d0: 9c2c 733f 86f7 9d3f 6621 8f3e 5105 25bf
000001e0: 2d4b d13f cf8a 0ac0 ff92 14be 32eb cd3f
000001f0: beb2 5640 07b7 e03f 963c 76bf 3ec2 c3be
00000200: b93d a03f 5a1c 77bf f9ef 1c3f 2a78 633e
00000210: 3f94 08bf d5f4 8a3f a387 443f 7101 e33e
00000220: 2c26 0b3e cc9c 9c3f 2108 303e ed0f 1b40
00000230: 00fc 21c0 3cb9 e53e 3212 bdbf 713b ef3e
00000240: a7c0 893e 7690 bcbd 9370 c23b 188b 20c0
00000250: 2eef a73f bdf6 83c0 7c97 6fbe 4937 34bf
00000260: 5fc1 5ebf 77d0 b83f ba45 0ec0 f575 1540
00000270: 8421 62bf f4cd 5abf ab84 7940 a496 6d40
00000280: 2b51 48c0 a7c8 0d3e 45b4 6abf 530b abba
00000290: 842a b23d c677 ff3c 9a40 843f 5ddc 683d
000002a0: b200 f5bc e596 833e 1a99 233f b311 f1bf
000002b0: 731b 413f 1f4c acbf 5a4a d73f 96d0 b4bf
000002c0: 95b8 b13d 642f 6dbe 4ee0 df3f da6f 243f
000002d0: 2c2b 01c0 b274 3ebf 8bac e1be f61c 6bbf
000002e0: 0f5b 6040 f589 0d3f 5802 32bf a820 09bd
000002f0: d270 8d3f 5e5e 583f fcbc d63f 7812 1d40
00000300: 6629 94bf 6497 d93f d07c 913f 0291 47bf
00000310: 16ab 8f3f ba0a 143f 9600 2ebe cbb2 14bf
00000320: c9d7 00c0 1f9c 3a3d 72fc 95bf 7fcd 9ebf
00000330: 16ae 553f e03c 9d3f 957f c33f d31a 2f3f
00000340: f591 f2bf 230b 3dc0 5d75 cebf 2c4d 54bd
00000350: 7e30 3dbe 9675 2f40 5f09 b43f fcb1 fdbf
00000360: 6885 9b3d 9753 913e 09c7 75be b294 9cbb
00000370: f27f febf 7e02 8f3e a01c d8bf 44b4 2f3f
00000380: f74e 4640 a706 203e 294b 0d3f 0d45 5d3f
00000390: d619 fc3e db58 b1bf 1cb7 9f3e adc1 d33f
000003a0: d48d b63f 1efa eebf 2391 53bd 9a3d d23f
000003b0: eed9 4040 856c e8bf 032e 773f 1c49 743e
000003c0: 0d3c f83c e538 48bf 6469 1540 ff84 3840
000003d0: 00a8 2ac0 4836 043e 1142 c2bf 8005 d73f
000003e0: 3628 713e 7280 91bf f4cd f53f 7078 ef3f
000003f0: 2220 7d3e 719b 713f b422 5bbf 47b6 37bf

fc1.bias f4 [128]
-0.878241 0.34406403 -0.5832003 0.2906293 -2.6650612 0.60517454 -0.23393868 -0.41960883
-0.24401769 0.31892622 -0.90160793 -0.89855975 0.05033811 -5.1243134 0.47577775 -0.32173178
0.5818067 -0.304953 -0.16976866 -0.1878556 -0.29535148 0.5609274 -0.2092754 -2.2347116
-0.48071343 -1.364939 -0.80179805 -1.7500719 -0.83677584 -2.969088 -0.6073815 -0.38074005
-0.087563865 -0.34951648 0.030878052 -0.84790564 0.77187794 -6.099442 -0.47558284 -1.1127521
-0.7646069 -0.2448499 -0.4530137 -1.4559056 -0.9193262 -0.40404946 -0.58752054 0.17213786
0.52166045 0.4419828 -0.12745446 -0.0022098706 -0.43275014 -0.123901434 -1.8197187 -0.103962794
-0.079403944 0.34721908 -4.7445717 -0.8088678 -4.4650393 -0.98737824 0.97531325 -4.030967
-1.7342274 -0.19812435 -0.2046061 0.38463673 -1.2619513 0.4200396 -0.24559174 0.18133429
-0.49462873 -0.10987085 -5.423716 0.40373906 0.13513438 -0.45700222 0.005017303 0.4391064
-2.5817358 -1.682152 -2.2067108 -0.003175875 -1.2337137 -0.18361676 -0.111794665 -0.35103115
0.273575 0.69589067 0.47405854 -5.332129 1.1535821 -0.20058522 0.03167018 0.48732734
-0.13556656 -0.9822942 -0.8964839 0.19972828 -0.049485162 -0.2552299 -1.975185 -0.74367964
-0.36186492 -5.5536675 0.36620048 1.3055168 -0.13806982 -4.3780756 -1.137152 -0.7577614
-0.0025048424 -0.5123838 0.12891032 0.088000536 -0.9000687 -0.14207043 -0.63168764 -0.9867705
-0.5595829 -0.80115646 -0.5800622 0.8141423 0.066231854 -1.5775428 -0.07150756 0.6556849
00000000: 67d4 60bf 2929 b03e 9d4c 15bf 5dcd 943e
00000010: 5d90 2ac0 b8ec 1a3f 9f8d 6fbe f8d6 d6be
00000020: c6df 79be 4c4a a33e c7cf 66bf 0308 66bf
00000030: 562f 4e3d 60fa a3c0 2499 f33e 07ba a4be
00000040: 49f1 143f cd22 9cbe d6d7 2dbe 385d 40be
00000050: 4f38 97be f098 0f3f 4a4c 56be 8405 0fc0
00000060: 1220 f6be 52b6 aebf a342 4dbf 5b02 e0bf
00000070: f136 56bf 8a05 3ec0 5b7d 1bbf 5cf0 c2be
00000080: af54 b3bd d3f3 b2be f8f3 fc3c 5810 59bf
00000090: cb99 453f a12e c3c0 987f f3be a96e 8ebf
000000a0: 47bd 43bf efb9 7abe 69f1 e7be 1d5b babf
000000b0: f658 6bbf 92df cebe bf67 16bf e844 303e
000000c0: 8a8b 053f 924b e23e 6c83 02be 7ad3 10bb
000000d0: 6d91 ddbe 09c0 fdbd 8bec e8bf 72ea d4bd
000000e0: 899e a2bd b3c6 b13e 88d3 97c0 f611 4fbf
000000f0: 9ae1 8ec0 d2c4 7cbf 21ae 793f affd 80c0
00000100: 2afb ddbf 1ce1 4abe 4384 51be 1bef c43e
00000110: 9f87 a1bf 6e0f d73e 677c 7bbe b2af 393e
00000120: fa3f fdbe f803 e1bd 158f adc0 e3b6 ce3e
00000130: ab60 0a3e 32fc e9be 3068 a43b 8ed2 e03e
00000140: 293b 25c0 c250 d7bf c03a 0dc0 5722 50bb
00000150: 55ea 9dbf 0806 3cbe 9af4 e4bd 5bba b3be
00000160: 0612 8c3e e425 323f cdb7 f23e cda0 aac0
00000170: 94a8 933f 3666 4dbe 97b8 013d f882 f93e
00000180: f6d1 0abe a277 7bbf f87f 65bf 9285 4c3e
00000190: f4b0 4abd 7ead 82be ddd2 fcbf ca61 3ebf
000001a0: 5c46 b9be a5b7 b1c0 a17e bb3e 2d1b a73f
000001b0: 2d62 0dbe 3219 8cc0 328e 91bf a7fc 41bf
000001c0: 4828 24bb 962b 03bf 1101 043e a039 b43d
000001d0: e76a 66bf e97a 11be 48b6 21bf fe9c 7cbf
000001e0: d340 0fbf 9718 4dbf f57e 14bf a16b 503f
000001f0: 91a4 873d ecec c9bf 8e72 92bd f7da 273f

fc2.weight f4 [4, 128]
-2.4245448 -2.0428472 -2.0181274 -2.3055308 -2.404471 3.0370855 1.232015 -4.6865277
-2.1824687 2.7555463 0.6931148 5.3644085 -0.769202 -3.052338 3.0048401 2.106201
1.3533959 3.9701529 -0.53796905 2.6532912 -0.6218429 -1.9085053 1.7662345 -5.3803234
-2.3650832 -2.784133 0.9842337 -6.222727 6.690926 -5.0759673 -0.70237017 -0.54148
-2.284804 -0.7570953 3.387177 0.998084 -1.268018 -4.7640305 -1.3303226 1.61757
3.1077561 1.808085 1.5574303 2.2779186 -4.2273936 -4.5526834 -1.0053661 -1.4299797
1.1461483 -0.6830185 -1.7366734 -2.46148 -1.6343291 -2.241344 -4.4429593 0.84128773
-1.0538375 1.144281 -3.2724478 4.853114 -1.9549494 5.1793065 2.4459465 -5.893121
-4.1589828 -0.26294202 1.386405 4.476482 2.8592758 1.0373735 -0.49210745 -0.9866507
3.0637538 -0.615682 -4.845591 -1.0108447 2.0872428 1.4310194 1.276574 -0.4098435
5.8170757 -2.9948742 -3.6097987 1.0488263 -4.1958017 1.1027603 -1.2922173 -4.1874895
2.8399024 -0.7411357 -0.40231436 -3.7484126 4.502573 -0.57974446 1.1006904 -0.13971445
0.09238135 -4.6800723 -2.6891692 -1.4766414 1.2545732 -2.7460396 5.1272683 4.3398204
1.9667817 -3.051817 -1.0568682 -1.8815932 1.2975682 -2.8015616 3.43002 3.6489556
0.8796669 3.2524087 -2.8732333 -0.9144393 -3.1827338 0.6809433 0.4773853 -2.0731814
-3.8918812 -1.5834854 -3.402865 -0.9870345 1.2247974 3.2420745 1.0860393 5.0237517
-2.5976384 -1.9333067 -2.1080961 -2.1926682 -2.0185728 3.490028 1.3952518 -4.039764
-2.448669 2.9191818 1.0500995 5.378272 -0.43100134 -4.937986 2.7466693 2.2080097
1.1608725 3.7006283 -0.41229463 2.4585943 -0.24811634 -2.1429844 1.4023029 -5.0398016
-2.2790968 -2.8313675 1.3769958 -5.541543 6.6124983 -5.3220177 -1.3673925 -0.2713106
-1.8079462 -0.49211168 3.793256 0.869937 -1.7423186 -4.325526 -1.2315831 1.5260075
2.9814682 1.1459134 1.5821974 2.0906947 -4.309576 -4.6376314 -0.61424303 -0.54982305
1.5254505 -0.8026832 -2.258093 -2.5369794 -1.6505833 -1.7315499 -4.401178 0.8492697
-1.2683856 1.0498741 -3.0484695 4.9446173 -1.6037573 5.682682 3.0651157 -4.5965652
-4.0263844 -0.47427902 1.1404225 4.2401633 3.0100317 0.4899225 0.48057732 -1.0368346
2.8318472 -0.53207886 -5.285622 -1.1560717 1.8816742 1.4678106 0.71528476 0.18379356
5.397887 -3.8188565 -2.6996224 0.76191956 -4.2938285 1.2481139 -0.94813323 -4.0281844
2.7986522 -0.3122726 -0.43909967 -3.2504225 4.899994 -0.51564616 0.7721664 -1.135143
-0.070635326 -4.7290487 -2.6773467 -1.0541095 0.97535074 -2.6350114 4.53969 3.471373
1.5452955 -4.9531636 -0.8871219 -2.2235816 1.2118636 -3.5261295 3.9473722 3.528989
0.6858174 2.1250398 -2.7507434 -1.3314086 -3.1825657 1.23932 0.6811615 -2.173615
-4.1027117 -1.732816 -3.4583435 -1.2509464 0.9943097 2.9463608 1.1275376 5.4027824
00000000: be2b 1bc0 02be 02c0 0029 01c0 d18d 13c0
00000010: dae2 19c0 9c5f 4240 abb2 9d3f 09f8 95c0
00000020: 91ad 0bc0 df5a 3040 f96f 313f 3ca9 ab40
00000030: 6cea 44bf 8159 43c0 4d4f 4040 ffcb 0640
00000040: 143c ad3f fc16 7e40 57b8 09bf 86cf 2940
00000050: 1931 1fbf e749 f4bf f913 e23f 9c2b acc0
00000060: 865d 17c0 3c2f 32c0 bdf6 7b3f 9420 c7c0
00000070: 111c d640 536e a2c0 88ce 33bf 6f9e 0abf
00000080: 3b3a 12c0 ffd0 41bf 82c7 5840 6f82 7f3f
00000090: 6a4e a2bf f072 98c0 0348 aabf 890c cf3f
000000a0: 7ae5 4640 546f e73f e059 c73f 6bc9 1140
000000b0: cf46 87c0 95af 91c0 d6af 80bf 9309 b7bf
000000c0: fdb4 923f 4dda 2ebf 504b debf e388 1dc0
000000d0: b231 d1bf 2e72 0fc0 b92c 8ec0 a25e 573f
000000e0: 26e4 86bf cd77 923f c96f 51c0 b64c 9b40
000000f0: c83b fabf e1bc a540 638a 1c40 7294 bcc0
00000100: 6316 85c0 56a0 86be b875 b13f 573f 8f40
00000110: 60fe 3640 a8c8 843f 82f5 fbbe 2495 7cbf
00000120: 8b14 4440 569d 1dbf 150f 9bc0 5c63 81bf
00000130: 6395 0540 a52b b73f c766 a33f 02d7 d1be
00000140: 7c25 ba40 05ac 3fc0 f106 67c0 f13f 863f
00000150: 0244 86c0 4027 8d3f 6067 a5bf eaff 85c0
00000160: f6c0 3540 12bb 3dbf 26fc cdbe fee5 6fc0
00000170: 1415 9040 226a 14bf 6ce3 8c3f 4e11 0fbe
00000180: 6f32 bd3d 27c3 95c0 591b 2cc0 9602 bdbf
00000190: db95 a03f 1dbf 2fc0 9512 a440 cfdf 8a40
000001a0: 81bf fb3f f850 43c0 7547 87bf 0cd8 f0bf
000001b0: b716 a63f c94c 33c0 7385 5b40 7d88 6940
000001c0: da31 613f 7727 5040 0ee3 37c0 b218 6abf
000001d0: e9b1 4bc0 4d52 2e3f d96b f43e 01af 04c0
000001e0: 9514 79c0 a6af cabf 8ac8 59c0 4bae 7cbf
000001f0: 29c6 9c3f 267e 4f40 5603 8b3f 93c2 a040
00000200: b53f 26c0 9876 f7bf 0ceb 06c0 ad54 0cc0
00000210: 4c30 01c0 9e5c 5f40 9c97 b23f bf45 81c0
00000220: feb6 1cc0 e0d3 3a40 a969 863f ce1a ac40
00000230: 35ac dcbe fb03 9ec0 6ec9 2f40 0850 0d40
00000240: 7897 943f 18d7 6c40 4818 d3be 9c59 1d40
00000250: 3612 7ebe a826 09c0 a97e b33f 0e46 a1c0
00000260: b9dc 11c0 2035 35c0 6641 b03f 5254 b1c0
00000270: 9699 d340 f84d aac0 b806 afbf 39e9 8abe
00000280: c86a e7bf 10f6 fbbe b5c4 7240 31b4 5e3f
00000290: 4c04 dfbf b66a 8ac0 84a4 9dbf 3754 c33f
000002a0: 60d0 3e40 4aad 923f 7285 ca3f f1cd 0540
000002b0: 0ce8 89c0 7a67 94c0 083f 1dbf 34c1 0cbf
000002c0: f641 c33f a57c 4dbf 9984 10c0 df5d 22c0
000002d0: 5046 d3bf 6da3 ddbf 73d6 8cc0 bd69 593f
000002e0: 765a a2bf 4662 863f 201a 43c0 4e3a 9e40
000002f0: eb47 cdbf 88d8 b540 db2a 4440 1017 93c0
00000300: 24d8 80c0 b3d4 f2be 5df9 913f 6baf 8740
00000310: 5ca4 4040 1fd7 fa3e 3b0e f63e ffb6 84bf
00000320: fc3c 3540 5236 08bf d123 a9c0 28fa 93bf
00000330: b3da f03f 38e1 bb3f e71c 373f 6134 3c3e
00000340: 7ebb ac40 2568 74c0 9dc6 2cc0 290d 433f
00000350: 0b67 89c0 32c2 9f3f dcb8 72bf e3e6 80c0
00000360: 1e1d 3340 32e2 9fbe acd1 e0be ec06 50c0
00000370: c0cc 9c40 6301 04bf b2ac 453f 5e4c 91bf
00000380: 41a9 90bd 5e54 97c0 a659 2bc0 0fed 86bf
00000390: 96b0 793f 07a4 28c0 2445 9140 fa2a 5e40
000003a0: 3ecc c53f 5180 9ec0 6c1a 63bf 294f 0ec0
000003b0: 591e 9b3f 1bac 61c0 bfa1 7c40 f5da 6140
000003c0: bb91 2f3f a700 0840 2e0c 30c0 996b aabf
000003d0: 28af 4bc0 0aa2 9e3f 9a60 2e3f 821c 0bc0
000003e0: 6a49 83c0 eacc ddbf 8055 5dc0 031f a0bf
000003f0: 158b 7e3f 2d91 3c40 2753 903f 98e3 ac40

fc2.bias f4 [4]
0.32480592 0.12095716 0.45020753 0.6561594
00000000: f64c a63e 63b8 f73d 9a81 e63e 10fa 273f
