DRQN/skiing_result/Skiing-ramDeterministic-v4_weights.pth (torch, 598906 bytes, 8 tensors)

lstm.weight_ih_l0 f4 [512, 128]
00000000: e789 663d 29c0 2cbd af23 f9bc 9a9e dd3c
00000010: 9cd0 d8bc 0c4a 8ebd 371a f73c ef53 adbd
00000020: 86db 80bc 73f8 913c 4575 023d 4d92 a33d
00000030: 0106 9f3d fac9 a13d 3d06 d53c 3fb5 5abb
00000040: 3e3f a83c 969d 923d 73c2 a93d be6e 3dbd
00000050: 196a c43b 56ce 8d3d 3678 ac3d 62b5 463d
00000060: 5b76 9fbd 337a 9c3d cffc f53a 42f9 02bd
00000070: ff0e 8abd de72 2bbc ea29 4bbc 6825 973d
00000080: 01c8 71bd 8aa4 9e3d a80c a4bd 3ed9 e63c
00000090: f81a f23c dc66 29bd a341 81bd 7499 113c
000000a0: 5e1d 2abd d7ec b0bc a001 613d c81f 773b
000000b0: 92f5 4d3d 1e20 c8bc 890a b23c 86ea 62bd
000000c0: b04a a0bd 3db9 0dbd d60b 92bd 9931 023d
000000d0: 51b0 973c 0592 ab3d 581e ae3d c2c5 b33c
000000e0: 54c3 aa3d 3d82 533d 873a febc 08bf 7abd
000000f0: d657 d2bc 5133 8d3d c8b6 773d bbaf 693d
00000100: 5f6d 0d3d 3161 b03d 4553 883d 5af0 2a3d
00000110: c89e 88bc 8a6d eb3b 5075 553d f79f 2c3c
00000120: f017 343d 7e45 6c3d 160e 423d 935d 84bc
00000130: 9492 7fbd 1573 db3c 1071 3b3d 6aca debc
00000140: 279d 20bd 22bd a3bc 97ad 75bd 3162 d8bc
00000150: b4f2 35bd 6fee 813c 6a5c 303c 8255 953c
00000160: e82a f13b 9b45 8ebd 466a 64bd 8aa1 7dbd
00000170: 73ac 5e3d ebe3 55bd 60cd 0e3c 284b 173d
00000180: bfc7 76bc f4f4 2dbd 975c 00bd c373 623d
00000190: a1fd ca3c da84 233d a24d 16bd bd0c c43c
000001a0: 5305 83bd 32c9 02bc 5d88 a43d 3247 35bd
000001b0: a19b 863d 6991 50bc 3c5b 36bc 1439 433d
000001c0: 94d2 a3bd d427 443d f66f 163d 4a0f 0bbd
000001d0: 8663 16bd 27a9 5b3c a25e acbd ef8a aa3d
000001e0: 004d 843b 73ed 2e3d 722f 963d dd0f 353d
000001f0: 3b74 3d3d d839 a4bd 9128 25bc 0936 7f3d
00000200: 3ed7 823d 0c56 653c 11e8 813d bc05 44ba
00000210: 6543 8b3d c2b2 173c a67a 523b 2301 3c3c
00000220: f300 71bd dbbf 44bd 2a06 bcbd 8c19 c1bc
00000230: 157e 7dbd 1957 08bc d0d6 303c 6ae3 253d
00000240: 8ff5 0d3c 9421 373d ef37 a43c 9847 363c
00000250: 3c36 bbbd a26c 783d 3d31 a9bd 211d a4bc
00000260: dcd4 12bb 24c8 a5bd 1b8d a8bc 3561 783c
00000270: f67d 663d 40c7 39bd d2c0 b73c 2a71 323c
00000280: 4d38 f4b8 52cf 9f3d e754 bcbd 1b22 a3bd
00000290: 8e95 ea3b eb7a 3e3c 7aba 4bbd 34d9 133c
000002a0: c0be 3bbd 1c3c 003d 5e1a b5bd 818d 87bd
000002b0: f4b0 aebd e669 60bc 8e6f 4d3d 094a 953d
000002c0: 82a7 58bd 799e 5bbd f987 923d 6273 9c3c
000002d0: df60 4d3d 03a3 29bd e79e 0bbd 7338 6b3d
000002e0: efb8 c5bd e803 27bd 7452 c9bd c788 4dbd
000002f0: a8e3 8abc efd1 b7bc 3efb b6bb a26c 153a
00000300: 4ace 98bd 2093 49bd e4e8 533c 0f44 babd
00000310: 9376 c8bd c398 26bd 5195 1abd 8753 c9bd
00000320: 8147 9e3c 5c65 7dbc 6f5c a7bd dba4 5b3d
00000330: fade 8e3b 8db4 463d 8e70 3c3d 56e4 7a3d
00000340: 7e64 abbd e88a 78bd 06eb a4bd a3ad 913d
00000350: b2cc 603c 9376 773d f932 9fbc b1bc a6bd
00000360: 9f21 63bd c2e3 943d b20d 04bd 7980 873d
00000370: 4e6f 85bd e2e2 ab3c f495 93bc 547a b5bb
00000380: 5384 e73c 57e9 143d 2fdf 9fbd bb46 02bc
00000390: af4c 98bd b5da a03c 0eab 903d ce66 3ebd
000003a0: 9c08 433d 8a06 5c3c f9b2 903d 2cd2 8a3c
000003b0: 0bb4 823c 5291 c8bd d367 8dbc 79b0 9f3d
000003c0: 80c4 7bbd f362 533c 05cf abbd 242f 803d
000003d0: f652 a73a edd2 8d3d 4770 c0bd 1222 febb
000003e0: af46 89bd 898b 303d 95b4 b1bd 5933 18bd
000003f0: b9c5 70bd 7fd2 93bd 4c4a 873d bb0e 50bd
0.056283858 -0.042175446 -0.030412523 0.027053166 -0.02646666 -0.06947717 0.030163867 -0.08463275
-0.015729677 0.017818665 0.03185012 0.07986889 0.07764817 0.07899852 0.026003951 -0.0033372191
0.020537969 0.071589634 0.08289041 -0.04624819 0.005994093 0.06924121 0.08421366 0.048512824
-0.077862464 0.07640495 0.001876736 -0.031975992 -0.067411415 -0.010464398 -0.01240013 0.073801816
-0.05902863 0.07746227 -0.080102265 0.028179761 0.029553875 -0.04135786 -0.06311347 0.008886684
-0.041531913 -0.021597309 0.05493319 0.0037708152 0.050283022 -0.024429377 0.02173354 -0.05539944
-0.078267455 -0.034600485 -0.07131164 0.03178558 0.018516691 0.083774604 0.08501881 0.021944884
0.08338037 0.051637877 -0.031033767 -0.061217338 -0.025676649 0.068945535 0.06047705 0.057052355
0.034528133 0.08612288 0.066565074 0.041733123 -0.016677275 0.007184689 0.05211383 0.0105361855
0.04396814 0.05768346 0.047376715 -0.0161579 -0.062395647 0.026788274 0.04576212 -0.027196128
-0.039212372 -0.019987646 -0.05998 -0.026414009 -0.044420913 0.015860764 0.010764221 0.01822925
0.007359851 -0.0694687 -0.055765413 -0.061921634 0.05436368 -0.052219313 0.008715957 0.03693691
-0.015062272 -0.042469934 -0.0313383 0.05528618 0.024779143 0.03992162 -0.03669513 0.023931855
-0.063975 -0.007982539 0.08033822 -0.04425735 0.065726526 -0.012729981 -0.01113015 0.047661856
-0.07999149 0.047889546 0.036727868 -0.033950128 -0.036716007 0.013407028 -0.08416487 0.08327281
0.0040374994 0.042706918 0.07333268 0.04420458 0.046253424 -0.08018845 -0.010080473 0.06230739
0.063887104 0.013997566 0.06343091 -0.0007477661 0.06799964 0.009258928 0.0032116561 0.01147488
-0.058838796 -0.04803453 -0.09180863 -0.023571752 -0.06188782 -0.008321547 0.010793403 0.040500082
0.008664503 0.044709757 0.020046202 0.011125468 -0.09141204 0.060650475 -0.082613446 -0.020033421
-0.0022404706 -0.080948144 -0.020575097 0.015159895 0.05627247 -0.045356035 0.022430811 0.010891238
-0.000116453135 0.07803215 -0.09195881 -0.079654895 0.0071589416 0.011625986 -0.049738385 0.009023953
-0.04583621 0.031307325 -0.0884292 -0.066187866 -0.08529845 -0.013697123 0.050155215 0.07289512
-0.052894123 -0.05361793 0.07154841 0.019097988 0.05014121 -0.041415226 -0.034087088 0.05742688
-0.09654414 -0.04077521 -0.0983018 -0.05017927 -0.016954258 -0.022438971 -0.0055841496 0.00057000865
-0.074612215 -0.049212575 0.012933943 -0.090950124 -0.09788241 -0.04067303 -0.037740055 -0.09830385
0.019321205 -0.0154660605 -0.08171927 0.053624015 0.004360077 0.04851203 0.046005778 0.061252914
-0.08368777 -0.060679346 -0.0805264 0.07113197 0.013720678 0.060415816 -0.019433485 -0.08141459
-0.055451985 0.07270004 -0.032239623 0.06616301 -0.0651537 0.02098221 -0.01801584 -0.0055382643
0.02826134 0.036355343 -0.07806241 -0.007951434 -0.07436501 0.019635538 0.07063876 -0.04648476
0.047615632 0.013429293 0.07065386 0.01694592 0.015954992 -0.09793343 -0.017261421 0.07797331
-0.061466694 0.012902009 -0.08389095 0.06258991 0.0012765813 0.069249965 -0.09396415 -0.0077555263
-0.06702935 0.04310182 -0.086770214 -0.037158344 -0.058782313 -0.07217883 0.06605968 -0.050795298

lstm.weight_hh_l0 f4 [512, 128]
00000000: 0a90 ee3c 4192 84bd 985f 94bd a0e2 183d
00000010: 552d 33bd 93bf abbd 087f 7d3d ab7b bbbc
00000020: 6e89 eebc 4022 11bd 5817 013d 6e6a 313d
00000030: e784 393d a8f2 e63c 3673 85bd d735 893c
00000040: 41da 24bb c9fb 26bc 0f27 88bd 8f1e 3ebc
00000050: d063 a4bc 941d a53d 237c 25bc a345 3cbb
00000060: 5908 62bd 3057 45bd 0885 9a3d b320 3a3c
00000070: ee8a a6bd 2f1a 55bd 570c 18bd 546d dc3b
00000080: 6944 b33d ace2 003d d827 08bd 6de2 acbd
00000090: d91c 00bc e6e3 8dbd 3dc3 f63b 1338 15bc
000000a0: 65c8 623d 4a6b 6e3d 9034 8dbd 059d 44bd
000000b0: fefa 00bd b0bc 0b3d 32b5 b13d 7fc9 5cbd
000000c0: 8189 dcbc 66f8 b0bc ae13 913c 2ed9 8d3d
000000d0: c838 8a3d af2d dd3c 3566 2d3d 232a 7dbd
000000e0: 91d2 06bd c378 763d 2b08 6bbd b5ae af3c
000000f0: f984 80bd bb29 203d d29a b33d c347 633d
00000100: 2a31 a03d 07be a03d d230 cd3c 0e8c 673d
00000110: 74f7 e13c b2d4 913d 10ba a4bd 764e 343d
00000120: 9932 8b3d a5f6 57bd 9dc0 19bd cb8f 05bb
00000130: 4bfd b6bc c5f3 77bd c0c8 723d 8b2c fdbc
00000140: 4e61 2abd f47e a739 2186 93bb 9e2a aa3c
00000150: 27e4 52bd 686a 8b3d 4418 9d3d 4995 033c
00000160: a3f1 3cbc 9946 53bc 7294 42bd 4a78 043d
00000170: ca4b 55bd 40da 42bd 974b ad3c 26c6 8abc
00000180: f696 99bd 11eb 5d3d 1e8e f6ba b253 aabd
00000190: 8424 a23c 3181 3dbd b818 ed3b e1f6 113c
000001a0: b95e b33d e86f c9bc 9e36 10bd 5b57 51bd
000001b0: c43d 9fbb 40f8 9e3c 822a 71bd 519e 50bd
000001c0: 5186 353d 6435 a1bd 4741 93bd 3a89 9e3d
000001d0: 8768 703d e5ed db3c 6c56 263d 90fb c03c
000001e0: b472 a9bb 54af ff3c 76ad 7d3d 4633 9d3d
000001f0: 6ecf a2bd 16d4 f43c cbe6 22bd 8a52 8e3d
00000200: 619e 983d 4aad 8d3d da07 9f3d 8480 473d
00000210: ecf9 a7bd cc32 6a3d c906 90bd 8a37 b7bd
00000220: 47ac dd3c 5d5b 30bd 2e16 083d 5e3e 893a
00000230: beb7 05bb 0503 813d 0066 793d bb58 c2bc
00000240: 5e68 523d ed01 aa3d 937a d2bc d1b0 10bd
00000250: fdbe 87bd d592 40bd e92a 66bd d40a ed3b
00000260: 15de 8dbd be24 a43d 446b 0dbd 8ad2 5dbd
00000270: 63df 00bd f55b 91bc 9a55 993d 8d09 343d
00000280: f268 34bd ea7c 5bbc c740 1f3c 6809 8b3d
00000290: 3724 853d d450 90bd e517 b23d f1e7 ee3c
000002a0: 59f9 04bd d624 52bd 21af c03c f59b 683d
000002b0: dfbf 97bd d378 2d3d 546b 973d 31d7 4f3d
000002c0: a679 b23c 0819 9fbd d918 9e3c 1a87 84bd
000002d0: a3b9 6f3d 499c aa3d 01d3 9a3d 7823 ae3d
000002e0: 6385 15bd 3293 7d3d c5cb 8cbd f676 d53c
000002f0: b9b7 e6bc 8bbc 91bd bdcd c53c da5d 5c3d
00000300: b1d5 14bb 32ad 83bd 0ef5 5f3c 78c4 aebc
00000310: 53d5 b53c c0bd 0b3d 2389 673c ce3a 2b3c
00000320: 180e 813d bdd2 d9bc 6396 053d 4674 fd3c
00000330: 83eb ba38 bcff 8bbb 291b 0a3c 2730 3d3d
00000340: 6d4c 38bc 9884 af3d 2a34 9cbd c345 9a3d
00000350: 9917 a13d 9e55 0abc 6dbb 3e3d 61d6 783d
00000360: 2574 35bd 83d1 203d 2239 283d 8086 15bd
00000370: c612 e93c 48c1 833d 24fb 18bd 8d38 5e3c
00000380: 7a51 a33c 4e80 c73c 5d6e 373d 3f17 51bb
00000390: 7b13 82bd 4de7 83bd de56 1b3d 98a4 85bd
000003a0: 16fb 9b3d d194 7abc 6b17 653d a411 80bd
000003b0: 5700 3cbc c997 5b3c 4e74 92bc 7d96 fe3c
000003c0: e325 cc3c cdc5 f63c 606f 06bd 5515 a73d
000003d0: b171 7dbd 5526 4d3d 50f8 c9bc 2c08 7abd
000003e0: b773 adbd 3836 8a3d 989b 68bd 199f ba3d
000003f0: a108 2a3d 68a2 57bd 12e4 b8bc 050e 2f3d
0.029121418 -0.06473208 -0.072447956 0.0373255 -0.043744404 -0.08386149 0.061888725 -0.022886118
-0.029118266 -0.035433054 0.031516403 0.04331439 0.04529276 0.02819188 -0.06516115 0.016749306
-0.0025154504 -0.010191866 -0.06648075 -0.011603965 -0.020067126 0.08062282 -0.010100397 -0.002872803
-0.055183742 -0.04817885 0.07544905 0.011360335 -0.081319675 -0.052026924 -0.037121143 0.0067269
0.087532826 0.03146617 -0.033241123 -0.08441625 -0.007819378 -0.06928234 0.0075305984 -0.009107607
0.055366892 0.058207788 -0.06894791 -0.048001308 -0.031489365 0.034115493 0.086771384 -0.0539031
-0.026921036 -0.02160282 0.01770958 0.06926189 0.067491114 0.026999323 0.0423338 -0.061807763
-0.032915656 0.06017376 -0.057380836 0.021445611 -0.062753625 0.039102297 0.08769764 0.05548836
0.07821877 0.07848745 0.025047693 0.05653005 0.027583815 0.071206465 -0.08043301 0.04402014
0.0679676 -0.052725453 -0.037537206 -0.0020379897 -0.022337576 -0.06053521 0.05927348 -0.030905029
-0.041596703 0.0003194731 -0.0045020734 0.020772275 -0.051487114 0.06807405 0.07670644 0.008031198
-0.01153222 -0.01289525 -0.04750485 0.03234128 -0.05207423 -0.04757142 0.021154208 -0.016940188
-0.07499497 0.054179255 -0.0018810665 -0.08316745 0.019792803 -0.046265785 0.0072356127 0.008908958
0.08758301 -0.024589494 -0.035208337 -0.0511087 -0.004859658 0.019405484 -0.05887843 -0.050932232
0.044317547 -0.078715116 -0.07190185 0.07741018 0.058693435 0.026846835 0.040609762 0.023557454
-0.0051711444 0.031211533 0.061933003 0.07675795 -0.0794972 0.029886287 -0.039770883 0.06949337
0.074520834 0.06917818 0.077651694 0.048706546 -0.08201966 0.05717735 -0.07032544 -0.0894614
0.027059687 -0.04305588 0.033224277 0.0010470857 -0.0020403708 0.06299404 0.06088829 -0.02372395
0.051369064 0.083011486 -0.025693214 -0.035324875 -0.06628225 -0.04701503 -0.056193266 0.007233957
-0.069271244 0.080148205 -0.034526125 -0.054155864 -0.03146304 -0.017744044 0.0748703 0.04395442
-0.044045396 -0.013396481 0.009720034 0.067889035 0.06501048 -0.07046667 0.08695964 0.029163333
-0.03246436 -0.05130466 0.023521008 0.056789357 -0.074096434 0.042351555 0.07393518 0.050742332
0.021786522 -0.07768446 0.019298958 -0.06471081 0.058526646 0.0833059 0.07559777 0.08502859
-0.03650416 0.061907955 -0.068748035 0.026057702 -0.028163778 -0.0711604 0.024145955 0.05380044
-0.0022710378 -0.06429519 0.013669265 -0.021333918 0.022196447 0.034116507 0.014131817 0.010451032
0.06301516 -0.026589746 0.032614123 0.030939233 8.9130386e-05 -0.0042724293 0.008429327 0.0461885
-0.01124869 0.08570212 -0.07627137 0.07532837 0.07865829 -0.008443264 0.046565462 0.060751323
-0.044300217 0.039262306 0.04107011 -0.036505222 0.028451335 0.0643335 -0.03734888 0.013563287
0.019936312 0.024353173 0.044782985 -0.0031904725 -0.06351372 -0.064406015 0.03792464 -0.065255344
0.0761625 -0.01529427 0.055930536 -0.06253365 -0.01147469 0.013402888 -0.017877724 0.031077618
0.02492041 0.030123616 -0.03282106 0.08158366 -0.061876003 0.050085384 -0.024654537 -0.06104295
-0.084693365 0.06748623 -0.05678901 0.09112377 0.041512135 -0.052645117 -0.02256969 0.04273798

lstm.bias_ih_l0 f4 [512]
00000000: af33 53bd bad8 8b3c 1dcc 37bd 2005 093d
00000010: 56ea 40bd 4d1c a6bd 2488 5b3b 1dee 233d
00000020: fca0 ad3b 8d30 adbc a545 79bd 1014 8bbc
00000030: 8002 5cbd ad0a 27bd 75d6 813d 99d3 813d
00000040: f61a bbbc c62a b2bc 3cc7 4b3d becc 9abd
00000050: c459 4b3d 02d0 9d3d 0667 3cbc 8bf6 96bd
00000060: e41f a33c a695 f93c 0618 323d c889 a1bd
00000070: c1cf 543d 2c0e c8bd c3cb f9bc 9805 8cbd
00000080: 91d8 d8bb 1ca3 87bd 7f63 ae3d d961 59bb
00000090: c8a7 3ebc c822 913d 2260 9cbd 9857 cbbc
000000a0: 4d9b d73d 6737 a1bc 240c 563d 8bc9 6f3d
000000b0: 7d7f 7b3b 91e2 883d 4b58 d4bc ccee 03bd
000000c0: 49f2 653d 63fd 323d b1c0 ad3c 15b5 ae3d
000000d0: 9c14 fd3c 1245 963c 3503 a93d 85f9 6e3d
000000e0: b424 8b3d bb56 1abd b4ae 893d 230f e83c
000000f0: c052 25bd 38e0 943d cd9c 9f3d cde6 12bd
00000100: ddf0 e8bc 001a 5cbd 8a34 b33d c48b fb3c
00000110: 43fa 2abc 1606 8cbd e5f9 73bd 7844 0abd
00000120: 366d a7bd f047 533d ff1f 95bd 2e63 90bd
00000130: fdbc 99bd 1058 95bd b0d3 6cbd c7c4 02bc
00000140: 75c9 39bc 5de7 aa3d 518f 79bd 598a ed3c
00000150: 5aed 8b3d 6c43 02bd e8d2 72bc 4393 793d
00000160: a86a 563d 01a5 4dbd 75a2 94bd 5f27 c23d
00000170: c752 b53d 319a 663d 037e 9fbd 518d 6f3c
00000180: 84ee 4abc cf50 bebd 77c7 98bd 3f97 73bd
00000190: 9f4b 89bd 445f 77bd 8b64 493d 9bb1 9abc
000001a0: ce38 8c3d 6fc2 2a3c 3318 ef3c 4cf8 953d
000001b0: a516 f13c 4fb7 3bbd 8fc9 543d 0153 7e3d
000001c0: 79a0 31bd 4b4c 1bbd 395f 8abc 975a 9d3d
000001d0: 8a4a edbc aac8 b3bd 8ff6 263d c769 81bd
000001e0: 2db1 e7ba a8de 0f3d 4345 5d3c 6f6e 863d
000001f0: 2171 06bd b3ac d03c 1c10 37bd 151d 61bd
00000200: b7a5 01bd 8d81 a2bd bf55 92bc f911 333d
00000210: 2092 5b3d c75c 6b3d 7790 10bd 1eac b0bc
00000220: d3c5 9ebd eb73 41bc 0d30 76bd 097d 973c
00000230: a876 b0bd 6ec9 80bd 1459 203d 09eb 8f3d
00000240: 2b8b c03c 8ca1 7dbb 938a a13d 1aee acbd
00000250: 2ad7 03bd 22a7 ccbc 3fd5 a6bd 1765 8ebd
00000260: 2899 3b3d 2726 99bd dda5 bfbb 9bbc 0cbd
00000270: 7c65 6b3d 104f 003d 830c 513b 705b 263d
00000280: 0677 2dbd 5ec6 adbd 172a f0bc 207b 373d
00000290: 4e77 9bbc 3a24 803d 69cd 51bd 612c 173d
000002a0: 1526 333d 5095 333d ac34 dc3a 2383 57bd
000002b0: 7758 1ebd d6ca 223d 28be 74bd 0e64 5f3c
000002c0: 8519 36bd cbb5 b23d b6b3 babc 1e7a 443d
000002d0: 2322 5d3c 9023 853c 2827 193a 3749 843d
000002e0: 099e 303c 4c8d 553c b8e7 8abc e53a 813d
000002f0: 617c d13c 9470 50bd e082 49bd 415f 99bd
00000300: c189 37bd c89a 523d 1b06 a23d fb61 ac3d
00000310: 345e 433d 5790 aabc 3106 ddbc f783 b13d
00000320: 22fc 5aba 0791 b43c ef95 393d 42fb 04bc
00000330: 6f68 acbc 630e ce3c 700e 7fbd ed54 493c
00000340: 89d7 8cbd 2c3b 98bc 7516 b5bc 5ec7 adbd
00000350: 6174 003d 1b77 963c eed4 b0bd a7b7 113d
00000360: 969d b7bc d535 eabc e02c 70bd 1f24 923d
00000370: c8c7 74bd 7241 f5bc fb4d 133d ce47 15bc
00000380: a0c3 5bbc a98c 903c 5b0e b43d 8653 c2bb
00000390: 207e 89bd 4d16 76bd 96ab b0bd d3dc 003c
000003a0: c3b5 febb ca13 493d 624b 763d 9d82 18bd
000003b0: f45b 873d cf24 aabd 01a2 adbd 0abc 43bd
000003c0: 4b78 743c 4684 34bd 18f3 56bb 256e 2abd
000003d0: 1df6 84bd 5c7d eabb 13da 03bd 875b a33d
000003e0: 27c1 84bd cbb1 ed3a fa8a 14bd 21fc 8abc
000003f0: 4ff0 9cbd 7bb9 19bc 1259 09bd b3b8 3cbc
-0.05156296 0.017071117 -0.044872392 0.033452153 -0.04709848 -0.08110867 0.0033497894 0.040022004
0.005298732 -0.021141315 -0.060857434 -0.01697734 -0.05371332 -0.040781666 0.063397326 0.06339187
-0.022840004 -0.021748912 0.04975055 -0.07558583 0.049646154 0.0770569 -0.011499172 -0.07371243
0.019912668 0.030466866 0.04347994 -0.07887608 0.051955942 -0.09768328 -0.030492669 -0.068370044
-0.0066176136 -0.066229075 0.08515071 -0.0033169894 -0.011636682 0.07086712 -0.076355234 -0.024822041
0.10527668 -0.019679738 0.052257672 0.058541816 0.003837555 0.06683839 -0.025921008 -0.032210156
0.056139264 0.04369868 0.021210046 0.085306324 0.030893616 0.018343482 0.08252565 0.05834343
0.0679411 -0.03768037 0.06722775 0.02832753 -0.04036212 0.07269329 0.07793579 -0.03586464
-0.028435165 -0.053735733 0.087502554 0.030706294 -0.010435644 -0.06837098 -0.05956449 -0.033756703
-0.08175127 0.051582277 -0.072814934 -0.07050167 -0.0750675 -0.07292187 -0.05781907 -0.007981486
-0.011339535 0.0834491 -0.060927693 0.028996633 0.068323806 -0.03180258 -0.014820792 0.060931455
0.05234781 -0.050206188 -0.07257549 0.09480166 0.08853679 0.056299392 -0.07787707 0.014621095
-0.012385968 -0.09292757 -0.0745992 -0.05947041 -0.06703877 -0.060393587 0.04916815 -0.018883517
0.06846772 0.010422333 0.029186344 0.073227495 0.029429743 -0.045829114 0.051950034 0.062090877
-0.04336593 -0.037914556 -0.016891109 0.07683294 -0.028966207 -0.08778508 0.04076248 -0.063190036
-0.0017676704 0.03512445 0.013505283 0.06564032 -0.032822732 0.025472974 -0.044693097 -0.054959375
-0.03165218 -0.07934866 -0.017863153 0.043718312 0.053606153 0.057461526 -0.035294022 -0.021566447
-0.07752576 -0.011807422 -0.06010442 0.018492239 -0.08616382 -0.0628842 0.03914745 0.07027251
0.02350386 -0.0038701026 0.07887759 -0.08443852 -0.03218762 -0.024982039 -0.08146142 -0.06952875
0.045800358 -0.0747798 -0.00584863 -0.034359556 0.05746983 0.0313254 0.0031898327 0.040614545
-0.042349838 -0.08485101 -0.029316945 0.044795156 -0.018977787 0.0625691 -0.051221285 0.036907557
0.04373749 0.043843567 0.0016800365 -0.052615296 -0.038658585 0.03974422 -0.05975166 0.013634695
-0.04445793 0.087260805 -0.022790771 0.047968023 0.013496908 0.01625231 0.00058423216 0.06459277
0.010779866 0.013034176 -0.016956195 0.06310061 0.025572004 -0.050888613 -0.049197078 -0.07488871
-0.044809107 0.051417142 0.07911321 0.08417126 0.04769726 -0.02082078 -0.026980491 0.086677484
-0.0008353611 0.02204181 0.045309003 -0.008116545 -0.021045892 0.025153344 -0.062269628 0.012288314
-0.068770476 -0.018582903 -0.022105435 -0.08485292 0.031360988 0.01836734 -0.08634363 0.035575535
-0.02241401 -0.028590122 -0.058636546 0.07135796 -0.05976084 -0.029938433 0.03596304 -0.009111358
-0.01341334 0.017645197 0.087918006 -0.005930367 -0.067135096 -0.06007986 -0.086264774 0.007865149
-0.0077731325 0.049091138 0.060130484 -0.037233938 0.066093355 -0.08307802 -0.084781654 -0.04778675
0.014921258 -0.04407146 -0.0032798704 -0.04160895 -0.06492255 -0.0071560573 -0.032190394 0.07976442
-0.064821534 0.0018134651 -0.03626535 -0.016965928 -0.07663023 -0.009382601 -0.03353221 -0.011518645

lstm.bias_hh_l0 f4 [512]
00000000: db79 653d e133 3c3d abbe 19bc 64d2 9e3d
00000010: 5a6d 843d 11b4 0ebd 8ea9 8abc fdbd 57bd
00000020: 2f5e 4f3d 8f9d 993d 582d a83b 203f e3bc
00000030: 8046 a83c 12d6 23bd ff57 82bd 05e9 26bd
00000040: d08a 0b3d 89ce d3bb 6dcd a63d 29c9 f8bc
00000050: 1d1c babc 47e6 34bd a5b7 953d ac46 ba3d
00000060: 21a5 9a3d 4af4 193d 26ab d1bd 5604 82bc
00000070: 51bd 213d 8d62 d5bd 5237 373d 70c4 c7ba
00000080: 3e02 cc3c 1583 133d f136 74bd 57cf 81bd
00000090: 9b33 c23c d7ff f03b 4b32 ddbb 92f8 ae3b
000000a0: ed8d c4bc fa5d 62bd 875d 75bd 760c e73b
000000b0: 5ae5 683d 0228 0d3d 01e2 b23c 0f1d 56bd
000000c0: 817e 21bc db44 adbb 2b18 44bd 2cea 203d
000000d0: 7acc 9e3d 37dd 7bbd e48a 8dbd 811a 89bc
000000e0: a105 563d 90f4 acbd e06a eb3c d218 22bd
000000f0: d0bd bf3c 3645 ab3d 7bb6 303c 1e13 563c
00000100: 62af 213d f795 00bd 6f96 a2bd fa0b 623c
00000110: 495a bb3d 1689 9a3b cf3d 953c 5215 213d
00000120: e01b 37bd 094d b9bd d2bc 863c e572 8ebd
00000130: 7831 7ebd 62e6 f1b9 81f9 5ebd d3a0 693d
00000140: 3cd3 853d 3729 2cbd 9513 9fbc d4a1 a13d
00000150: ac47 b4bc 0e9c aa3d 21d3 a73d a985 40bd
00000160: dc2e 693c c9c9 983d 81b1 8b3d 2a7c bc3d
00000170: 5b1f 7c3d 4db7 abbc d3b8 15bd 457d 1bbc
00000180: 43f2 8dbd f2f2 70bd e39f e2bc c142 903c
00000190: 3ced 523c 5991 073d e8c4 93b9 4ddb 003d
000001a0: 25ab 083d 6436 80bd dec5 8f3d 53ef 04bd
000001b0: 5252 c93c 907b f5bc f113 193d 2a7e a1bd
000001c0: 4e75 9d3d 82bb b8bc 4104 9fbd 5295 80bd
000001d0: 4a32 ee3c 4747 023d e301 4a3d 8247 a23d
000001e0: e694 813d 0412 d63d 5945 2e3c ab00 debb
000001f0: ca10 923d ed93 8bbd db85 323c 4b2a af3c
00000200: 1854 673d 2784 973d 228c a5ba 2d69 f03c
00000210: 58e6 b4bd e9bf 6c3d ff11 1cbd 1ea6 6b3d
00000220: 9ee2 143c d61c 50bd 5776 ffbc 18d3 9b3d
00000230: 5a61 68bc c197 87bd 033a b2bc 9cf2 413d
00000240: 9ccd 9abc 3df4 5fbd 6a55 2b3d ca07 92bd
00000250: a090 aabd 98a5 70bd 9bab d43c e385 c23a
00000260: fa5a 863c b059 96bd d8c4 23bd 86aa 743d
00000270: da20 b6ba f0c1 f2bb 2e92 423d 0479 943d
00000280: d19d 9c3d 29b6 c73c 73cc 77bc 164d bfbc
00000290: 2bd6 28bd 25bb 30bd 09b2 c13c a8af a53d
000002a0: 1632 7a3d 3ad1 e4bb 5420 a33d 489d 133b
000002b0: ef86 0639 3d38 853d 90ab a3bd 8012 9c3d
000002c0: 471f 5cbd 449d 423d e016 cd3c ff0b 6e3c
000002d0: 0c0a 52bd 6c47 8c3d 4734 9e3b 7b06 8b3d
000002e0: 3c89 38bc 176c 6d3d 367e 8e3b 20e9 b73c
000002f0: b7fb 193b 2295 fd3b 3f6b 57bd 94dc 9c3d
00000300: 2d38 4d3d 607d 27bd 8e15 423d ec22 c03c
00000310: 8c8c 4bbc a43b 1f3d 9c56 103d 1377 a8bd
00000320: 2db2 953d 5563 27bc bbf0 aa3d 5e27 8dbc
00000330: 3ef5 aabd 8d3c db3c 885d 14bc bf57 243d
00000340: 2df3 0dbd d694 76bb d7ed cabc 2148 ddbc
00000350: f0dc 8ebc 1a62 4e3d 6903 05bd 1f45 a9bd
00000360: 3b41 3d3c 3a2c 493c 1797 8fbd 6b91 063c
00000370: 7e5f bcbd 940e 8c3d 50d1 91bd 8fd4 733b
00000380: 5cec 4abd 2d5e 27bc bdca ad3c afb5 80bd
00000390: 2084 c13b b1b2 0c3d 1f5c 2dbd 6bb8 053d
000003a0: 92eb ae3c 9ef8 0b3d fa97 373c dbad 143d
000003b0: 5160 e639 42a8 393d eb4a 35bd e15c b8bc
000003c0: 9f99 52bd a9c8 863d c2cf 933d c236 80bd
000003d0: e7ec 95bd 9ba1 05ba 7be4 923d b6fe bb3c
000003e0: 7685 b03d c4a2 8d3d db0c a53c 223f c13d
000003f0: d49a a63d fc6f b3bd 156b 8a3d 06f1 dfbc
0.056024414 0.045947913 -0.009383838 0.077549726 0.0646617 -0.034839693 -0.016926553 -0.05267142
0.05062693 0.07500755 0.0051323585 -0.027740061 0.02054143 -0.039999075 -0.0636444 -0.04074957
0.03406793 -0.00646383 0.081446506 -0.030369358 -0.022718484 -0.044164922 0.07310418 0.09095511
0.07551027 0.037586488 -0.10237722 -0.015871208 0.039487187 -0.10419188 0.044730492 -0.0015241038
0.024903413 0.03601368 -0.05962271 -0.06338375 0.023706248 0.0073547172 -0.00675038 0.0053396905
-0.023993457 -0.055265404 -0.059903648 0.007051046 0.05685935 0.034461983 0.021836283 -0.052273806
-0.009856821 -0.005287749 -0.04787461 0.039285824 0.077538446 -0.061490264 -0.06911257 -0.01673627
0.052251462 -0.08445084 0.028737485 -0.03957445 0.02340594 0.0836281 0.010785694 0.013066081
0.0394739 -0.031393018 -0.07938849 0.013796801 0.0914808 0.004716049 0.01821795 0.039326973
-0.044704318 -0.090478964 0.016447458 -0.06955508 -0.062058896 -0.0004613875 -0.054437164 0.05703814
0.065344304 -0.042031493 -0.019418517 0.078921944 -0.022006832 0.08330546 0.081945665 -0.04700247
0.014232364 0.074603625 0.068209656 0.0920337 0.06155334 -0.020961428 -0.036553215 -0.009490316
-0.069309734 -0.05882544 -0.02766413 0.017609956 0.012873944 0.0330976 -0.00028184731 0.03145914
0.03336634 -0.06260374 0.07020162 -0.0324548 0.024575386 -0.029966146 0.037372533 -0.07885392
0.0768839 -0.022550348 -0.07764483 -0.062784806 0.029076714 0.031806257 0.049318206 0.07923795
0.06327228 0.10452655 0.010636651 -0.006774982 0.071321085 -0.06815324 0.010896171 0.021382472
0.056476682 0.07398253 -0.0012630264 0.029347027 -0.08832997 0.057800207 -0.0381031 0.05753147
0.009087233 -0.05080875 -0.031184359 0.07608622 -0.014183367 -0.06620742 -0.021756178 0.04735051
-0.01889687 -0.054676283 0.041829504 -0.07130392 -0.08328366 -0.058751673 0.025960734 0.0014840927
0.016400803 -0.07341325 -0.039982647 0.059732936 -0.0013895289 -0.007408373 0.04750269 0.072496444
0.076472886 0.024378853 -0.015124428 -0.023352187 -0.04121987 -0.043147225 0.023644464 0.080901444
0.061082922 -0.0069829496 0.079651505 0.0022524167 0.00012829503 0.06504867 -0.07991707 0.07620716
-0.053740766 0.04751326 0.025035322 0.014529227 -0.051279113 0.0684956 0.0048280093 0.067883454
-0.011263188 0.05796441 0.0043485416 0.02245003 0.002349598 0.0077387253 -0.052592512 0.076592594
0.0501024 -0.04089105 0.047383837 0.023454152 -0.012423646 0.038875237 0.035238847 -0.082258366
0.07309375 -0.010216554 0.08346697 -0.017230686 -0.083475575 0.026762271 -0.009055503 0.040122744
-0.03465574 -0.0037625334 -0.024771614 -0.027011933 -0.017439336 0.050386526 -0.032473955 -0.08265137
0.011551197 0.012278611 -0.0701124 0.008213381 -0.09197901 0.06838718 -0.07120001 0.0037205552
-0.049541816 -0.010215324 0.021214837 -0.062846534 0.005905643 0.0343501 -0.04232418 0.032646578
0.021352563 0.034172647 0.011205668 0.036298614 0.0004394078 0.04532648 -0.0442609 -0.022505226
-0.051416036 0.06581242 0.07217361 -0.06260444 -0.07320576 -0.00050976285 0.071724854 0.022948604
0.08619206 0.06915811 0.020147732 0.0943587 0.08135 -0.08761594 0.067587055 -0.027336609

fc1.weight f4 [128, 128]
00000000: d58b 5f3c 471d 2c3d 7707 a03c ab46 c2bc
00000010: 6745 6dbd 666a 803d 293f 623d 70cb 613d
00000020: 2a6d e93c 0ba7 92bd ca87 c13a 4733 c73c
00000030: b0ad 663d b156 48bc 15b1 30bd 416a 8cbd
00000040: 5e68 8abd 68f8 4d3c ca9d a1bb 8d7d 0a3d
00000050: 6735 8e3d 3442 a83d 798a 133d a21d 09bd
00000060: de64 b0bd 5169 98bb cb9e 8b3d 8d6b 32bd
00000070: f897 11bb 0cf7 733c 09b7 a93d 9d83 b2bd
00000080: cc97 8bbd 2a6b ae3c 8dc9 4dbd 6e7f 7fbd
00000090: 0e3c 9e3d 750e c2bd c1a0 c03d feaa a53d
000000a0: 3b9e 4bbd a975 bfbd 3c4c b1bd 8e58 4c3d
000000b0: 941a a93b 5697 6d3d 6ca0 9cbd caca 97bc
000000c0: 3034 cc3c 46f8 16bd 9fd5 ae3d de53 523d
000000d0: 9bb1 94bd ae31 4e3c 5b3e 65bd 66b7 2c3d
000000e0: 1905 c9bc 38f8 97bb 3f03 c63d 3144 3f3d
000000f0: 15ce 833d 0864 5bbc af0a 5bbd 0352 a03d
00000100: 5585 b33b 3cf9 acbc 63ed 1cbd 32d2 903b
00000110: 692d 6b3d befa 203d 2d1d 5f3d 3a97 cabc
00000120: bf62 32bd 86ed b8bc e2b6 c1bd e9e5 70bd
00000130: c027 8dbd bc9a 6bbc a51f 97bc e339 813d
00000140: c797 133d a926 983d 51af 3e3d 67ad e1bc
00000150: 4469 04bd 5de8 9f3d c58f 623d f7a7 2fbd
00000160: 15cd b03d 1e3a c43c 50fd 923d d61c 353d
00000170: a13b a03c cd43 413d 97da a9bd 1dc2 763d
00000180: f213 69bd c5b2 a33c b8ab 9b3d f3a8 4e3c
00000190: 4a85 963a 112e 0d3d 2adc 6ebd dda9 893c
000001a0: 166d a23d c613 303d 8f46 cd3c 4109 403d
000001b0: e43f 74bd c946 9c3d 1a10 6fbd 6e24 7e3c
000001c0: 3644 33bd 56b8 883d 7550 84bd 8f3f 553d
000001d0: a13d 5abd 7387 11bd 47fd d3bb 2759 793d
000001e0: 922e 8b3d 3bb7 4a3d e58f afbd e10d 8f3d
000001f0: 5420 93bd 1ad8 903a 6782 163d 9249 f9bc
00000200: bd1d 73bd d06e 7c3d 5071 9cbb f600 34bc
00000210: 8b33 983a 2fbe 93bd 3232 2f3d 9b58 70bd
00000220: 1464 00bb 93fb a1bd 85c9 dc3a b7b8 94bd
00000230: e4f7 6abd cf31 ce3c e411 403d d721 813d
00000240: 91ee fbbc 9c31 c1bc c9e5 1e3d 3982 c9bc
00000250: 22bb 8cbd 065c 11bc 31b2 203c d7ab 2bbd
00000260: e694 c0bb 2d52 32bd f750 4d3d 34db 93bd
00000270: b38a 89bd 7e9c 9a3c f1b0 bf3d aca2 60bd
00000280: 035e f23c fa08 0fbd 4ae3 773c 3f15 9dbd
00000290: 97bd b13c d68b d03b 4e91 eb3a c335 a03c
000002a0: fbdc 18bd 4477 3fbd b414 a0bd a0de ecbb
000002b0: 6754 b0bd 91c5 01bd 90d9 383d bcad 0bbd
000002c0: f5f9 843c e1e4 573b 55bd 143d d153 b63d
000002d0: 4b73 a63c 3632 c23d 4d8c aa3d 4aaa d5bc
000002e0: e450 47bc cd3a 8cbd 707c 6c3d fae9 8c3d
000002f0: 3411 1d3d f113 09bc 71cf 95bc 440a a6bd
00000300: a735 483d 280b 94bb c295 923c cb1e 98bd
00000310: ded9 92bd 39a6 a53d 9a76 7b3c dc88 103c
00000320: 75fe 9dbd 4818 0fbd 6cea 013d 31ca 43bd
00000330: 2d9e 1ebd 9d7a 9a3d 67a3 4dbd b1f5 5abd
00000340: e1fb 96bd 9dd6 99bd 301d 50bd 00d4 7d3c
00000350: 67df 9b3c bd06 5cbc 9bcb 343d 5fe3 0f3d
00000360: 66ea bf3b 9ff7 363c 34b1 403d aa9d f3bc
00000370: 3bf4 c9bb 6f5e a83d 9ae4 2fbc 98cb 413d
00000380: f003 dabb 8463 7bbd 02df 0ebc b588 7e3d
00000390: 638c 3e3d 49f2 7fbd 379a 8e3d 99ad d23b
000003a0: 3961 f93b 0c55 f83c c0f8 78bd 2a4e b4bc
000003b0: addd 7f3d 0f0f 613d 9369 083c 4fbf a83d
000003c0: a5aa 263b a2a6 663d fcd6 853d fa31 213d
000003d0: 3255 4b3c 66b7 123d 8ee4 453d ce35 03bd
000003e0: 90e3 75bd 96c1 4abd 7eff 8cbd b4fe ba3d
000003f0: 175e 963d 6661 823d 760f 4bbd bd5f b93d
0.013644178 0.04202011 0.01953481 -0.023715338 -0.057927515 0.06270294 0.055236015 0.055125654
0.028494436 -0.07160767 0.00147652 0.024316443 0.056317985 -0.0122277 -0.04313763 -0.06856204
-0.06758188 0.012571432 -0.00493214 0.03381114 0.069437794 0.08215752 0.03602073 -0.033475526
-0.08612989 -0.0046512266 0.06817397 -0.0435596 -0.0022215825 0.0148904435 0.08286864 -0.087165095
-0.06816062 0.021291334 -0.050241042 -0.062377386 0.07726298 -0.09475414 0.094056614 0.08089255
-0.049711447 -0.09348614 -0.08657119 0.04988914 0.005160639 0.058005653 -0.076477855 -0.018529315
0.024927229 -0.036857866 0.08536839 0.051349513 -0.07260438 0.012585087 -0.05596767 0.04216709
-0.024538564 -0.0046377443 0.09668588 0.04669589 0.064357914 -0.0133905485 -0.053476986 0.078281425
0.005478541 -0.021114938 -0.038312327 0.0044195885 0.057416353 0.039301626 0.054471184 -0.024730314
-0.043551203 -0.022574198 -0.0945871 -0.05881301 -0.06892347 -0.014380153 -0.018447706 0.06309869
0.036033418 0.07429249 0.046553914 -0.027548505 -0.03232695 0.07807992 0.05531289 -0.042884793
0.08632866 0.023953494 0.07177222 0.044216953 0.019559683 0.0471838 -0.08293646 0.060243715
-0.056903787 0.019982705 0.07601112 0.012613523 0.0011483815 0.03446776 -0.058315434 0.01680463
0.07930963 0.042987607 0.025058059 0.046883825 -0.059631243 0.07630689 -0.058364965 0.015511615
-0.043766223 0.06675784 -0.064606585 0.052062567 -0.05328143 -0.035529565 -0.006469402 0.060876038
0.06795992 0.04949115 -0.085723676 0.06985069 -0.071839005 0.0011050731 0.036745455 -0.030430589
-0.059354533 0.061629117 -0.00477425 -0.010986557 0.0011612041 -0.07214009 0.04277248 -0.05867825
-0.0019590901 -0.07909312 0.0016844725 -0.07261794 -0.057365313 0.025170235 0.04689206 0.063052826
-0.030753406 -0.023583226 0.03879336 -0.024598228 -0.0687163 -0.008872038 0.009808109 -0.041911926
-0.005877125 -0.0435354 0.050126042 -0.07219544 -0.06715908 0.01887345 0.09359921 -0.054842636
0.029585844 -0.03492067 0.0151298735 -0.07670068 0.021696849 0.006364326 0.0017972381 0.019556886
-0.03732012 -0.0467446 -0.07816449 -0.0072286874 -0.086098485 -0.031682555 0.04512936 -0.034101233
0.01623247 0.003294282 0.036313374 0.089027055 0.020318648 0.09482233 0.083275415 -0.026082177
-0.012165282 -0.06847153 0.05773586 0.06880565 0.038346484 -0.008366571 -0.018287392 -0.08107427
0.04887929 -0.0045179315 0.017893676 -0.07427748 -0.07170461 0.08088345 0.015348101 0.008821692
-0.077145495 -0.034935266 0.031717703 -0.047800247 -0.038725067 0.07542918 -0.05020466 -0.053456966
-0.07372261 -0.07511637 -0.050809085 0.015492439 0.019027425 -0.013429341 0.044139486 0.035128947
0.0058568 0.011167436 0.047043994 -0.029738266 -0.0061631477 0.08221137 -0.010735655 0.047313303
-0.0066533014 -0.061374202 -0.008720161 0.062142093 0.046520602 -0.06248692 0.06963008 0.006429386
0.007610467 0.030313991 -0.0607841 -0.022009928 0.062467266 0.054946 0.008325952 0.08239614
0.0025431302 0.056311257 0.06535146 0.039354302 0.012410449 0.035819434 0.04831367 -0.032033734
-0.060031474 -0.049501024 -0.06884669 0.09130612 0.07342165 0.063662335 -0.04957529 0.09051464

fc1.bias f4 [128]
00000000: 5dbf f2bc 5732 56bd 5997 6d3f 86bc 95bc
00000010: c0e4 bcbc 8dfb 783f ee0e 9d3d 741f 89bd
00000020: 5b29 293c 2e47 6c3f 92b8 423c 405a b2bd
00000030: ffc3 813f a16b 6f3d 9f66 87bd e4d7 4f3d
00000040: 8c50 783f a5fe 813f ddbe 6dbc a0ca dc3c
00000050: f99f 8e3d 7715 8f3b 91ba c7bd 0aeb 803f
00000060: 8abf 9a3c 3993 733f 4203 753f 7808 7a3d
00000070: 8368 383d ecc1 b9bd c3fe 9cbd da87 783f
00000080: 8ab2 803f 92c9 883f 9ea1 b4bc 3604 0e3d
00000090: 8a33 cd3b ecdc 4cbd 6941 763f 3d41 813f
000000a0: 9f7e 5e3f 2149 853f 5e60 c1bc 1ab6 86bd
000000b0: bf02 5b3f 28fe 7e3f af42 c73b 2c04 c23d
000000c0: c6ff 803d 6212 133d 379f 863f 0add b4bc
000000d0: 2a38 c13d 0e4d aabd 6896 573f d6ec a2bd
000000e0: 513f 6e3f 4d58 6a3f df57 883f c17e 783f
000000f0: 8e49 b0bd dd61 613c 26a0 68bd 0ab8 7a3f
00000100: 9b2e 7d3f e748 45bd fe5e 463d ca5d 803f
00000110: 3274 823c 9910 793f a13a 803c bd9f 3d3d
00000120: 34a9 823f 8554 6e3f 04dc 52bc 5701 a2bd
00000130: 2c6e 0e3d c039 c9bd bea4 823f 6e1a 793f
00000140: 4d3a 8c3f 017e 5d3f 5497 e73c d419 393d
00000150: cc6d 91bd ec6b 683f b0ea 5a3f cbcf 663f
00000160: ed63 7e3f e994 a0bc 9017 3cbd 0043 20bd
00000170: 2e18 673f 452f ce3c 85c7 15bd ff0a 613d
00000180: bff6 20bc 870d 59bd 91c8 823f 7ac5 7e3f
00000190: 1a83 31bd 1174 bf3c 0b8f 813d 6d98 bebd
000001a0: d903 823f 8793 fbbc ec8a 963d 1a51 753f
000001b0: 6115 4d3c 63b1 97bd 4054 743f 0c2e 8b3d
000001c0: bcae 533d 5278 823f ba1c 833f 3504 853f
000001d0: 1d79 db3b 46ea 55bd 1111 05bd cb75 8b3f
000001e0: 8b77 783f 6cdb 8abd 3061 7b3f ef27 803f
000001f0: 2679 92bb 575d a7bd 246a 783d 64fd 9ebd
-0.029632265 -0.0522941 0.92809063 -0.018278372 -0.023058295 0.97258836 0.07668863 -0.06695452
0.010324801 0.9229611 0.011884825 -0.0870862 1.0137938 0.058452252 -0.0661137 0.050743
0.96997905 1.0155836 -0.014510837 0.026952088 0.06964106 0.0043665725 -0.097523816 1.0071728
0.018890161 0.9514652 0.95708096 0.061043233 0.045021545 -0.09070191 -0.076657794 0.97082293
1.0054486 1.0686514 -0.022049721 0.034671985 0.0062622475 -0.050015375 0.9619356 1.0098034
0.8691196 1.0412942 -0.023605522 -0.06577702 0.85551065 0.9960656 0.0060809474 0.09473452
0.06298785 0.035906203 1.0517339 -0.022078056 0.094345406 -0.08315478 0.84213877 -0.07955329
0.93065363 0.91540986 1.0651816 0.9706841 -0.086077794 0.013756243 -0.056793354 0.9793707
0.9889924 -0.04816523 0.048430435 1.0028622 0.015924547 0.9729095 0.015652956 0.046294916
1.0207887 0.93097717 -0.012869839 -0.07910412 0.034773037 -0.09825468 1.0206525 0.97305954
1.0955292 0.8652039 0.028270401 0.045190647 -0.0710102 0.90789676 0.85514355 0.90160817
0.99371225 -0.019602256 -0.04592091 -0.039126396 0.9027127 0.025169024 -0.03656723 0.054942127
-0.009824454 -0.052991416 1.0217458 0.99520075 -0.04333792 0.023370774 0.063261114 -0.09306417
1.0157424 -0.030709995 0.07350716 0.95826876 0.012517304 -0.07406881 0.95441055 0.06795892
0.05168031 1.0192969 1.0243142 1.0391909 0.0066977874 -0.052225374 -0.03248698 1.0895323
0.9705741 -0.06780133 0.9819517 1.0012187 -0.0044700084 -0.081721 0.0606481 -0.07763174

fc2.weight f4 [3, 128]
00000000: efcf 693d 85ee 443d 49c3 13bf d7ae b53c
00000010: 85f2 eb3c bab2 30bf 655b 7c3d bd43 11bd
00000020: 8ac0 0d3d 409d 20bf e5fc 4d3d f54d 863d
00000030: 23c2 13bf 75c1 6abc 4a49 54bd 96be aabd
00000040: 3f5d 0bbf cfef 32bf 2bcd 413d 4f32 433d
00000050: 8baf 91bd fd65 96bc 3981 3d3d 4ad8 35bf
00000060: 434a 7e3b 6387 2cbf bc97 21bf 00fb bfbc
00000070: 075a 5bbd 717a f0bc cbb6 883c c6c4 09bf
00000080: 54c0 2dbf 50f6 1dbf 67d7 243c 2d79 d93c
00000090: c04c 99bc dd6b 853d c88c 17bf 74fd 17bf
000000a0: a375 0abf a55c 16bf 8e00 debc ecda ee3c
000000b0: 0a96 19bf a993 1fbf d8ea 55bd 8d8c 0b3c
000000c0: 42f4 9a3d e841 843d ea4c 31bf 5292 36bd
000000d0: 2eb4 9ebc 547e 893b c438 03bf 8aaf 513d
000000e0: d7e2 2fbf ec47 2cbf 4b6a 30bf f05a 2dbf
000000f0: 97b7 c9bc e444 7e3d 4a99 7a3d d195 0abf
00000100: 1596 37bf 7809 b7bd cf69 85bc f8e2 11bf
00000110: 1462 b6bd e9f5 2cbf 5fad 843d 1941 74bd
00000120: d9c4 04bf 0474 1dbf 7902 2cbb f22d 763d
00000130: 4947 dd3c 216b 883d 297f 2cbf 9ef2 1cbf
00000140: 77b1 28bf 9fed 10bf d68c 58bd 564d 873d
00000150: 6e0b 94bd afa4 0ebf a43c 1ebf d1b6 27bf
00000160: fe95 2bbf 6a92 083c 1305 3f3d 1c4c 6cbd
00000170: d3bf 2bbf 8523 12bc 1613 9e3d 0ca7 883d
00000180: 2b8c b4bc 6b92 7bbd 010b 33bf 11c4 32bf
00000190: 8dce 90bd 5e50 b9bc 5664 c03c 6609 6a3c
000001a0: 55a3 0dbf 8e1d 7dbc 038b 1c3d 9a31 38bf
000001b0: e0dd f4bc fa62 0b3a 16a4 38bf 4d3f 473d
000001c0: a070 b33c ee75 2cbf 80d4 19bf f72c 2cbf
000001d0: 3c27 61bc 363d 87bd 8794 f03b 89bf 39bf
000001e0: 41be 36bf eaaf 7a3d a4a6 33bf 25b5 29bf
000001f0: f8e5 173d 1733 153d eec1 373d a334 89bd
00000200: 29ad c3b9 4048 60bb 6c5d 0ebf e20a 883d
00000210: 8524 b63b 3575 10bf 7200 653d 843a 663d
00000220: be4e 32bc 353d 15bf 90ce 843d 2466 c13c
00000230: 5a0c 35bf 57b5 353d 62d2 123d 9bff 993d
00000240: 7edd 1cbf bf60 31bf a6d6 753d c560 553c
00000250: e7a8 c03b e698 25bd 7b82 f73c 6c92 3cbf
00000260: 45e6 28bd e5dd 28bf f0a6 22bf 4f70 a03d
00000270: 35e6 073d 260d 753d a229 e5bc 77ea 22bf
00000280: 0ca1 2cbf a172 1fbf db1a b43b 5a8f 1ebc
00000290: 5774 873d a709 743d c3ba 23bf 3bc6 23bf
000002a0: f896 12bf d5a8 17bf d14c 883d ef0b 8a3d
000002b0: 1a63 17bf 7deb 20bf 20b1 b13d 9bba c4bd
000002c0: 8908 f53c 670d 893d 72cb 3abf f8c0 823c
000002d0: 54a6 973d 0647 98bd aea9 fcbe 0dc3 62bc
000002e0: 971a 0fbf 7d2d 32bf ee03 13bf a0d5 18bf
000002f0: bfa9 4d3c b297 32bd 6cbc d73c 8b89 33bf
00000300: f6ea 2dbf 6b0a 643d 081e 853d 4e59 07bf
00000310: 17eb f33c 3d76 1dbf b9ec 8e3d a66d 263d
00000320: 0af8 21bf 98af 36bf 9dec b0bc 329d 9d3d
00000330: c44a 0c3d f0fb bf3c e18b 20bf ec61 28bf
00000340: e31f 2dbf d624 fdbe 6255 ea3c d246 3f3d
00000350: 1e45 67bc edbd 1fbf 67de 14bf 434e 29bf
00000360: 88e8 35bf c086 19bd 9cb1 a3bc 7c49 923d
00000370: 0b91 13bf 510a 3e3d 9e1d e7bc 897d 55bd
00000380: 37b0 6f3d 343d 82bd cea3 0abf b7b4 25bf
00000390: e3b3 883d d414 13bd 082b f63c 3991 3fbd
000003a0: 8240 30bf e1b1 1fbb 04ec b73c bd63 36bf
000003b0: 5808 883d ef95 5e3d 06bc 22bf 6f03 ca3b
000003c0: 6e3f bfbd d23b 37bf 46e1 31bf d144 2cbf
000003d0: 2924 fbbc e3e3 643d 9150 99bd 5c4a 2bbf
000003e0: 399d 33bf 29e2 abbd 3a2b 2abf 34f7 31bf
000003f0: 42f9 b7bd 6b70 1ebd d662 f4bc 44be ef3c
0.057083067 0.048079032 -0.57719857 0.022178097 0.028802166 -0.69022715 0.061610598 -0.03546499
0.034607448 -0.62739944 0.050290007 0.06557838 -0.57718104 -0.01432835 -0.051827706 -0.08337133
-0.5443916 -0.6989717 0.047314804 0.0476554 -0.0711356 -0.018359179 0.046265814 -0.71033156
0.0038801588 -0.67394084 -0.63122153 -0.023435116 -0.053552654 -0.02935526 0.016688725 -0.5381588
-0.67871594 -0.6170397 0.010061122 0.026547039 -0.018713355 0.06514714 -0.5919919 -0.59371114
-0.5408575 -0.58735114 -0.027099874 0.029157124 -0.59994566 -0.62334687 -0.052225918 0.008517397
0.0756612 0.06457883 -0.69257987 -0.044573136 -0.019373026 0.0041959677 -0.5125849 0.051192798
-0.68705505 -0.67297244 -0.6891219 -0.67716885 -0.024623675 0.062077418 0.061181344 -0.5413485
-0.7171338 -0.08937353 -0.016285805 -0.5698695 -0.08905426 -0.6756273 0.064783804 -0.059632394
-0.51862866 -0.6150515 -0.002624659 0.06010241 0.02701153 0.06661058 -0.6738153 -0.61307704
-0.6589579 -0.5661258 -0.052868687 0.066065475 -0.072287425 -0.5572004 -0.6181128 -0.6551333
-0.67025745 0.008335689 0.0466357 -0.05768977 -0.67089576 -0.008919601 0.07718484 0.06672487
-0.022039494 -0.061418932 -0.69938666 -0.69830424 -0.070706464 -0.02262133 0.023485344 0.014284467
-0.5532735 -0.015448941 0.03821851 -0.71950686 -0.029890954 0.0005317178 -0.72125375 0.048644353
0.02190429 -0.67367446 -0.60089874 -0.6725611 -0.013742264 -0.06603472 0.0073419246 -0.72557884
-0.71384054 0.06120292 -0.7017615 -0.6629203 0.03708455 0.036425676 0.04486268 -0.06699493
-0.00037322313 -0.0034222752 -0.556113 0.06642701 0.0055585527 -0.56428844 0.055908628 0.05620815
-0.010883031 -0.5829652 0.06484711 0.023608275 -0.7072197 0.044362392 0.035845168 0.07519456
-0.6127547 -0.6928825 0.060019158 0.01302356 0.0058795097 -0.04042902 0.030213585 -0.7366092
-0.041235227 -0.65963584 -0.63535976 0.07833921 0.033178527 0.059826992 -0.027973954 -0.63639015
-0.6743324 -0.62284285 0.0054963655 -0.009677732 0.06613987 0.059579518 -0.6395685 -0.6397435
-0.5726161 -0.5924199 0.066552766 0.067405574 -0.5913559 -0.62859327 0.08676362 -0.09605905
0.029911296 0.066920094 -0.7296668 0.015961155 0.074047714 -0.07435422 -0.49348205 -0.013840449
-0.5589995 -0.6960066 -0.5742787 -0.59700966 0.012552678 -0.0436017 0.026334964 -0.7013175
-0.67936647 0.055673998 0.06499869 -0.52870643 0.029775186 -0.6150854 0.06978745 0.040631913
-0.632691 -0.71361685 -0.021597201 0.07695998 0.03425099 0.023435563 -0.6271344 -0.65774417
-0.6762678 -0.49442166 0.028605167 0.0466984 -0.0141156 -0.6239918 -0.5815186 -0.6613504
-0.7105794 -0.037482023 -0.019982152 0.07142922 -0.57643193 0.046396557 -0.028212365 -0.052121673
0.05851766 -0.0635933 -0.54156196 -0.64728874 0.06674936 -0.035908535 0.030049816 -0.046769354
-0.6884843 -0.0024367499 0.022451408 -0.7124594 0.066422164 0.054342207 -0.6356815 0.00616496
-0.0933827 -0.71575654 -0.69484365 -0.67292506 -0.030656891 0.055881392 -0.0748607 -0.6691034
-0.7016178 -0.08392746 -0.6647221 -0.6951783 -0.08983089 -0.03868143 -0.029832285 0.02926553

fc2.bias f4 [3]
00000000: aece b6bf b998 a9bf 79ae a0bf
-1.4281824 -1.3249732 -1.2553245
