DQN/lunarlander_results/LunarLander-v2_weights.pth (torch_old, 21013 bytes, 6 tensors)

fc1.weight f4 [64, 8]
000000 51 42 ef bf 84 cb a8 be ba 68 8f bf bd 9f 09 bd
       -1.8692113 -0.3296777 -1.1203835 -0.033599604
000010 81 07 7c 3f dc cb 92 bd 8c d8 39 bd 82 38 f9 bd
       0.9844895 -0.07167789 -0.04537253 -0.12168981
000020 27 fb a8 3f f4 ad 6f bf 0e b6 1e 3f cf 18 16 bf
       1.3201646 -0.93624806 0.61996543 -0.58631605
000030 de 81 b4 3e 35 0e 23 be 94 2f cd 3e 58 b4 9d 3d
       0.3525533 -0.15923388 0.40075362 0.077004135
000040 6e 05 cc 3d ff 9a 9f 3d 80 a8 e3 be dc 37 88 3f
       0.09961973 0.07793235 -0.44464493 1.0642047
000050 96 94 b5 be 35 f3 29 bf 9c 75 97 3e 62 20 80 3f
       -0.35464925 -0.6638673 0.29581916 1.0009882
000060 e9 0b a7 bd 31 ad 91 be 6f 6e e3 3e 57 f7 96 bf
       -0.081565686 -0.28452447 0.44420192 -1.1794232
000070 66 66 68 3e 3c ea 72 be 70 fa 9c bd e8 27 c5 3d
       0.22695312 -0.23722166 -0.07664955 0.09626752
000080 c2 a6 88 bd 84 29 93 3e ac 67 8b bd 02 f1 aa bf
       -0.066724315 0.2874261 -0.06806883 -1.33548
000090 a1 b5 88 3f 2d c8 e9 3c fd c6 04 be 2b 40 2c 3d
       1.0680429 0.028537834 -0.12966533 0.042053383
0000a0 81 80 cb 3f 63 aa 24 bf 93 cf d0 3e ac 0b ec bc
       1.5898591 -0.6432249 0.40783367 -0.02881416
0000b0 d9 13 a6 be c4 31 1c 3e 29 d7 90 bd 6b 03 4b 3f
       -0.32437018 0.15253359 -0.070722885 0.7930209
0000c0 4e fd 2c bf 37 9e f6 3e ee b9 07 3f f4 ce 03 3e
       -0.6757401 0.48167583 0.5301808 0.12871915
0000d0 2c d4 9b be 13 16 61 3f 10 ee 2b be f2 0a 43 bf
       -0.30435312 0.8792431 -0.16790032 -0.76188576
0000e0 37 9f 2f be 90 a4 8c c0 c3 4a 1e be a3 9c af bf
       -0.1715058 -4.395088 -0.15458207 -1.3719677
0000f0 62 64 84 3e 42 b3 4f 3f 63 ef 71 3e bd e6 10 3f
       0.25857836 0.811329 0.23626475 0.5660208
000100 a3 70 92 bf 47 73 31 bf 4e 3f 9d 3d 43 ca 2e bf
       -1.1440624 -0.69316524 0.0767809 -0.68277377
000110 1a 24 8c 3f 77 f9 99 3e 2e 83 1e bf 2b ac d9 3e
       1.0948517 0.3007314 -0.61918914 0.42514166
000120 a9 1c 98 be 0d 59 ab bc 14 07 e5 3f de b2 a7 be
       -0.29709366 -0.020916486 1.7892785 -0.32753652
000130 1a c8 31 3f 83 e6 72 be 9c cd 2c bf 1d 40 14 bf
       0.69445956 -0.23720746 -0.67501235 -0.5791033
000140 be 5e 44 be 9b c8 05 bf 13 f6 1d bf 4b 80 8f 3e
       -0.19176766 -0.52259225 -0.61703604 0.28027567
000150 8e e5 c9 3e 4f b7 8d 3f 5d 2f 5e 3e 54 bd 99 be
       0.3943295 1.1071566 0.21697755 -0.30027258
000160 8b 45 3a 3f 86 c1 07 bf f8 5c 75 3f dc 7d 86 be
       0.72762364 -0.5302967 0.95844984 -0.26267898
000170 6b 1e dc be 43 8a ab be 14 f4 39 3f 93 d9 82 be
       -0.42991957 -0.33503923 0.7263806 -0.2555662
000180 bc b2 6a 3d 60 2c ee 3c e4 a3 a6 3d 31 c0 99 3c
       0.05729936 0.029073894 0.081367284 0.018768402
000190 d6 19 35 c0 8c ba 42 3e 47 c5 cb 3d 6e fb cf be
       -2.829702 0.19016474 0.09949737 -0.40621513
0001a0 61 a2 52 be 2d 40 38 bd da 2e 04 bf 2a 1f 7f 3f
       -0.20569755 -0.044983078 -0.5163399 0.9965693
0001b0 38 85 87 bf 80 73 98 bd 35 c9 56 be 87 0b 5e be
       -1.058753 -0.07443905 -0.20975192 -0.21684085
0001c0 68 83 ef be 87 f5 82 3e 25 0e 0f 3e 17 2d 76 3e
       -0.46779943 0.25577947 0.1397024 0.24040638
0001d0 82 4f d8 bd 9a fa 1f 3f 31 48 4a bf 2e 68 46 3f
       -0.1056204 0.6249176 -0.79016405 0.77502716
0001e0 4a 47 8b be 71 e2 c6 bd 2b e7 89 3d 44 79 12 bf
       -0.27202827 -0.09711159 0.06733545 -0.57216287
0001f0 b2 87 9a be 12 13 60 be c8 2c ca bf d2 b3 6c 3f
       -0.30181652 -0.21882275 -1.5794916 0.92461884
000200 e6 57 b0 3e 7d 10 a0 3e 6c 91 81 bf 69 e9 71 3f
       0.3444206 0.3126258 -1.0122504 0.9449678
000210 5b 05 7f 3f dc e9 e2 3e 84 51 72 be c0 05 5d 3d
       0.99617547 0.44319046 -0.23663908 0.05396056
000220 d6 80 18 3f a5 c4 97 3e 96 ea ad 3f 8a 48 aa be
       0.5957159 0.29642215 1.3587215 -0.33258468
000230 58 c3 60 bf d0 ca d5 bd 01 b3 47 be aa 0c a5 bf
       -0.8779807 -0.10439074 -0.19501878 -1.289449
000240 fd 7c 9c be 65 28 a2 be 22 92 5a bf 63 3d 3d bf
       -0.30564108 -0.31671444 -0.8537923 -0.73921794
000250 cf 0d c2 3f 30 17 dc 3e 0d b0 60 3c 3d b3 06 3f
       1.5160464 0.4298644 0.013713849 0.52617246
000260 0f 58 64 3f 52 39 01 3f 76 a2 d5 3e 06 9d af 3d
       0.89196867 0.5047809 0.4172551 0.08574872
000270 3b fa 4e be a1 cf 39 3f e6 b8 4f bf f3 19 08 be
       -0.20212643 0.7258244 -0.8114151 -0.13291149
000280 0e 5c 76 3f 51 e2 08 c0 7f 95 fc 3e 7d 53 13 bf
       0.96234214 -2.1388133 0.49332806 -0.5754927
000290 0d 8d 10 3d 5d 53 58 be 32 49 8a be c1 8f 31 3f
       0.035290767 -0.2112555 -0.2700897 0.69359976
0002a0 b1 cb a7 bf 28 2b 07 c0 d8 36 8e 3e 64 75 a3 3f
       -1.3109037 -2.112009 0.27776217 1.27702
0002b0 61 3d b3 3f ce 2f b7 3e f8 f6 3b bd a3 0c 15 3e
       1.4003106 0.3577866 -0.045889825 0.14555602
0002c0 ad 2a c0 be e7 a3 df be 84 0d 07 bf a9 e1 83 bf
       -0.3753256 -0.43679735 -0.52755 -1.0303241
0002d0 ce 71 5a 3f 85 6c 01 bc 2f 6e 02 be ab ab 19 3e
       0.853299 -0.007899408 -0.12737344 0.15006892
0002e0 b8 14 11 c0 94 4f 96 3e 9e bb 12 3f 7a b6 43 bf
       -2.2668896 0.29357588 0.5731753 -0.7645031
0002f0 ed f2 cd 3e 60 44 b3 3e 9e 95 11 3e 0a 82 f0 3d
       0.402244 0.35013103 0.1421723 0.11743553
000300 2b e1 fe be 1d ec 9f 3e f3 0f e1 3e 14 51 0b 3f
       -0.49781165 0.31234828 0.4395748 0.5442059
000310 0d bd 26 3e 22 ba 41 bf e3 24 2a 3f 5f 8a d9 3b
       0.16283055 -0.7567464 0.66462535 0.0066388096
000320 a5 e9 5c 3e 4c 8e 57 bd 5b 2e 2b be 54 b7 42 3f
       0.21573503 -0.05262594 -0.16716902 0.76060987
000330 c7 28 26 3e 34 7f 1e bf ae 0c c3 3e a1 97 ed bc
       0.16226493 -0.61912847 0.3809561 -0.029002966
000340 2e fe 66 3d 8c f5 5f 3f b5 79 f2 3e 83 21 70 3f
       0.05639475 0.8748405 0.4735848 0.93801135
000350 ad b7 91 bf 1b b5 59 bf c6 d0 4c 3e d4 cc 9e bf
       -1.1384178 -0.8504197 0.20001516 -1.2406259
000360 3f cb cb 3d f8 37 bb be 7f 56 85 3c f3 99 c8 3c
       0.099508755 -0.36566138 0.016276596 0.024487471
000370 78 31 ee be 56 46 17 3f 4d 65 cd 3c 7a 0f 77 3e
       -0.46522117 0.590917 0.025072718 0.24126998
000380 63 2f b6 bc f4 bf 99 be 7a 3d db 3f d0 74 2c 3f
       -0.022239393 -0.3002926 1.7128136 0.6736574
000390 00 17 11 c0 d5 e0 2d bd 59 f3 9c 3d af 66 b0 be
       -2.2670288 -0.042450745 0.076636024 -0.3445334
0003a0 25 e9 8b bf 03 36 26 3e 01 2d 80 3f 23 b9 86 bf
       -1.0930525 0.16231541 1.0013734 -1.0525249
0003b0 f5 0c ef be 1b c4 db bc 8a ae 97 3e 6d 0f ff 3e
       -0.46689573 -0.026826909 0.2962535 0.49816456
0003c0 27 3e 91 3e 5f aa b8 3f fb 44 39 3f aa de 4a bf
       0.2836773 1.4426993 0.7237088 -0.7924601
0003d0 31 aa 89 bf 5b 68 12 bf 3f 5e 25 3f 95 6a 5c be
       -1.0755063 -0.57190484 0.64596933 -0.21525033
0003e0 cc c2 d4 3e 66 db 04 be 67 6f f9 3e 31 71 4f be
       0.41554868 -0.12974319 0.48717806 -0.20258023
0003f0 e6 18 41 3e 13 ca 97 3f 41 60 3c bf 73 2a 12 be
       0.18857154 1.1858543 -0.7358437 -0.14274006

fc1.bias f4 [64]
000000 33 74 0e bd 1c 63 d4 be 96 35 0c bf e7 3f 93 3e
       -0.034778785 -0.41481864 -0.54769266 0.2875969
000010 54 45 63 3e 82 ac 13 bd 8d 46 74 bf 06 16 08 3f
       0.22194415 -0.03605319 -0.9542015 0.53158605
000020 3b bc ee 3d 35 65 90 3d a8 3c bf 3e c0 5f 54 be
       0.11656996 0.07050554 0.37350965 -0.2073965
000030 47 a7 81 bc 74 14 b4 3d 06 c5 b6 bd 0c 3d b7 3e
       -0.015826834 0.087929636 -0.08924298 0.35788763
000040 63 19 1f bf 66 15 4f be 58 a4 14 bf a1 68 82 be
       -0.6214811 -0.20223007 -0.5806327 -0.2547045
000050 3e 0d f0 bd fa ac f4 bd 58 00 07 bf 60 3e 63 3e
       -0.11721276 -0.11947055 -0.527349 0.22191763
000060 b0 6e 1e 3f 57 9d 76 3f 61 17 28 3e b0 4b 05 3f
       0.61887646 0.9633383 0.16415168 0.52068615
000070 af f3 91 3e 82 50 f4 3e 57 92 35 3e 46 43 18 3f
       0.28506228 0.47717673 0.17731605 0.5947765
000080 86 cd 54 be 4d 8f 86 3e 27 03 e0 3d 99 36 c2 3d
       -0.20781526 0.26281205 0.10938101 0.0948307
000090 95 8b 19 3f 8c aa 05 3e 2b b7 02 3d 47 83 11 3f
       0.5997861 0.1305334 0.031912964 0.5684094
0000a0 4b b2 88 be ef 5b fd bc 4f aa a0 be f7 56 c4 3e
       -0.26698527 -0.030927626 -0.31379935 0.383476
0000b0 33 10 f1 be 3b 73 42 3e 62 3b 92 3b 92 aa 91 be
       -0.47082672 0.1898927 0.0044626454 -0.28450447
0000c0 b0 7f 60 be 1a f0 0a bd 75 42 49 3f 27 71 45 bd
       -0.21923709 -0.033920385 0.7861703 -0.048203614
0000d0 63 99 d6 be 91 0e f3 bd 6d ae d3 be 87 9c 65 3d
       -0.419139 -0.11868013 -0.41344014 0.05605748
0000e0 24 e2 ab be d1 66 08 be cb 37 08 3f 92 15 58 3f
       -0.3357097 -0.13320471 0.53210133 0.84407914
0000f0 98 95 d7 3d fe d5 af be 5e f3 88 3e 91 83 11 3f
       0.105265796 -0.3434295 0.26748174 0.5684138

fc2.weight f4 [64, 64]
000000 e6 0b 42 bd e8 80 70 bd 9b 52 10 be a9 50 0a 3d
       -0.04737463 -0.058716685 -0.14094011 0.03376833
000010 7b db d6 bd ec 76 61 bd 22 c8 37 bd ea a4 d5 bd
       -0.10491081 -0.055045053 -0.044868596 -0.104318455
000020 de ec c8 3c f1 e3 96 bd 19 9f b7 bd b4 e9 d1 bd
       0.02452701 -0.07367695 -0.08965892 -0.102496535
000030 cc 58 2b 3d fc e5 38 3d e9 24 8f 3d 6f 7b ae bc
       0.04183273 0.045141205 0.06989462 -0.021299092
000040 78 8d 9b bd 68 95 fd 3c e3 4d aa bd 45 da 99 3b
       -0.075953424 0.030955032 -0.08315637 0.004695209
000050 c3 7b fb bc 7e 7e 6d 3d ab 0c 02 3d 79 24 0d be
       -0.030698663 0.05798196 0.031750362 -0.13783444
000060 1d f6 25 bd 97 fc c6 3c 14 54 df bd 78 b2 d9 bd
       -0.040517915 0.024290366 -0.109047085 -0.10629743
000070 56 93 b1 bd 21 bc 8b bd d8 a9 e4 bc 99 3e c2 bb
       -0.0867068 -0.06822992 -0.027913019 -0.0059278724
000080 86 10 fe bd ec e6 07 be 3b 67 73 3c 46 e1 81 39
       -0.12405495 -0.13271683 0.014856155 0.0002477264
000090 e5 48 c9 bd 10 a5 c5 3c 98 e0 a7 bd 19 16 4f bd
       -0.09828357 0.02412656 -0.08197135 -0.050558183
0000a0 e2 5e ef bd 0c 12 5a bb 55 ca cc 38 74 3c 04 be
       -0.11688019 -0.0033274917 9.765165e-05 -0.12913686
0000b0 d4 fc d5 3d 64 ad a8 bc a6 4b e9 bd 74 97 de bd
       0.10448614 -0.020590492 -0.11391382 -0.10868731
0000c0 61 57 f4 bd 1c 25 bd bd 7c ce ad 3c 56 56 4e bd
       -0.11930729 -0.09235594 0.021216623 -0.050375305
0000d0 48 5b 90 3d 0c 93 dd bd a5 bb 51 bd 06 ac ca 3d
       0.070486605 -0.108190626 -0.051204342 0.09896092
0000e0 58 2a f0 3c 44 65 ff 3a bc 1c 03 bd 15 5e ae 3b
       0.029317066 0.0019485136 -0.032009825 0.005321274
0000f0 9d 73 e5 bc 9a 1a e0 bd 63 30 da bd f3 48 81 3d
       -0.02800923 -0.10942574 -0.1065376 0.06312742
000100 db e7 19 3d c6 67 f0 bd a0 52 df 3c 68 5d 07 be
       0.03757463 -0.11738543 0.027261078 -0.13219225
000110 86 d6 c6 bd dc b5 68 bd 00 63 65 bd 45 cc a3 3d
       -0.09708886 -0.05681406 -0.056002617 0.07997946
000120 0a 35 bb bd 0d 1c d3 bc db 08 bc bd 4c 7f 25 bd
       -0.09140976 -0.025770212 -0.091813765 -0.040404603
000130 00 81 15 3c c0 ea c6 bd 7b 6d 99 bd a2 c5 a6 3c
       0.009124994 -0.09712744 -0.07491585 0.02035791
000140 e3 ef 13 bc 52 e5 de bd 0e b4 b7 3d e8 09 0f be
       -0.009029361 -0.10883583 0.089698896 -0.13968623
000150 64 ae f1 bd ec 2d 8b bd d4 85 a4 bc ca bf a2 3d
       -0.118008405 -0.06795868 -0.020083345 0.07946737
000160 26 d4 fd bd b0 a1 da bd b8 d4 02 bd aa 12 38 3d
       -0.1239398 -0.10675371 -0.031941146 0.044939674
000170 46 0e d2 3d 8c be a4 bd a8 d6 db bd 44 ba 86 3d
       0.10256629 -0.080441564 -0.10734302 0.06578496
000180 60 d5 de 3c f0 e1 83 bd 1e 0f bd bd bb 29 fa 3c
       0.027201355 -0.064395785 -0.09231399 0.030537477
000190 8e 54 ec bd 1b 7a cb 3c 0c e0 c8 3d 00 9b 4e 3d
       -0.11539565 0.024838498 0.098083586 0.05044079
0001a0 f4 f3 99 bd 9c be 1d bd 7e 3a ef 3d fd 2b a0 bd
       -0.075172335 -0.038511857 0.116810784 -0.0782089
0001b0 49 93 ce 3b 88 75 a3 3c 25 80 54 3c 4d 50 13 3d
       0.006304179 0.019953504 0.012970005 0.035965253
0001c0 f4 35 45 bd 42 76 a8 bd d3 32 92 bb f4 c8 47 bd
       -0.048147157 -0.08225681 -0.004461625 -0.04877563
0001d0 80 cf a0 3a b2 89 85 3b 8c c3 97 3d 3e 36 b7 3d
       0.0012268871 0.0040752525 0.074103445 0.08945893
0001e0 15 b9 a7 bd 33 bc f4 bd b8 4f 21 bd f9 1c 79 3d
       -0.081895985 -0.11949959 -0.039382666 0.060818646
0001f0 6f e6 f2 bd 64 dc 19 bd 34 49 0d bd 70 96 4d 3d
       -0.11860358 -0.037563697 -0.03449364 0.050192297
000200 53 26 7a bf 0f d6 b4 bf aa a5 1b be 40 dd b3 3e
       -0.9771473 -1.4127825 -0.15199915 0.35129738
000210 8a 5e e5 3e b4 a3 a2 be ae 60 e0 bf 32 f3 7f 3e
       0.4479869 -0.3176552 -1.7529504 0.24995115
000220 4e d0 13 bf d2 0e 44 3e ec 66 c5 bc cc 27 d3 3e
       -0.5773972 0.19146279 -0.024096929 0.412413
000230 e6 19 c9 3e 1a c8 de 3d f9 66 fe 3e b9 ad f3 3e
       0.3927757 0.1087801 0.49687937 0.47593477
000240 42 9f 50 3f 56 bd 86 3f 2a 03 72 be a7 bb 97 3e
       0.8149301 1.0526531 -0.2363402 0.29635355
000250 c3 eb 92 be c3 cb 11 c0 21 51 96 bd 0c eb fb 3e
       -0.28695497 -2.2780616 -0.07339693 0.49202764
000260 be 94 43 3e a3 d3 9a be 51 df db ba 18 71 c5 3d
       0.1909971 -0.3023959 -0.0016774927 0.096407115
000270 a7 fe 0f bf 3f 63 11 3f 1f a6 27 3f 96 df 9d bf
       -0.56247944 0.5679206 0.65487856 -1.2333858
000280 6e 5f 88 3f b8 09 83 bf 47 ae e6 bf 76 6c df 3e
       1.0654123 -1.0237341 -1.8021935 0.43637437
000290 23 3e 2c 3e 8b 56 9d 3b f0 50 46 be b8 ee 6f bf
       0.16820578 0.0048015765 -0.19366813 -0.9372363
0002a0 60 3b 0e bf bb 7a dc bc e4 40 99 3e a3 d0 20 3f
       -0.5555935 -0.026913991 0.2993232 0.62818354
0002b0 1b ec f0 bf 71 84 02 3f 47 20 a1 3f 1f fe c2 bd
       -1.8822054 0.5098334 1.2587975 -0.09521126
0002c0 6f bd 39 bf 1a 61 d4 3e a2 ab 82 3d 65 85 80 be
       -0.7255468 0.41480333 0.063803926 -0.25101772
0002d0 48 80 9c bf d0 12 42 bf 4b 2b 57 be a6 69 d3 bf
       -1.2226648 -0.75809956 -0.21012609 -1.6516616
0002e0 44 19 ba 3e 92 12 a4 3e fe 48 08 be 32 7e 13 bf
       0.363474 0.32045418 -0.13309094 -0.57614434
0002f0 55 de 00 3f b8 f2 ce bf fc 61 21 c0 14 47 7e 3f
       0.5033925 -1.6167822 -2.5216055 0.99327207
000300 4a 0c 45 be 0b df 39 bf 5d 46 11 3f 2a 60 80 3e
       -0.19242969 -0.7260596 0.5674799 0.25073367
000310 69 4c 3c 3d cf 7f 88 bf 8d 21 fb 3e c2 b6 6b bf
       0.045971308 -1.0664004 0.49049035 -0.9207574
000320 92 cc 90 be 08 01 6a 3f 9a ef dc be c6 1a 9b bc
       -0.28281075 0.91407824 -0.4315155 -0.018933665
000330 e2 ce 7c 3e 64 77 3d 3f e3 4c 92 3e 92 21 25 bf
       0.24688295 0.740103 0.28574285 -0.6450435
000340 7f c0 96 3f 69 5d 58 3f 55 40 b1 be 63 15 a8 3e
       1.1777495 0.8451753 -0.34619394 0.32828817
000350 38 30 95 bf 0a 0a 5f 3f 34 03 38 3f e0 71 17 3f
       -1.165534 0.87124693 0.7187989 0.59158134
000360 de de 83 3d 10 f5 36 bf e5 0f 91 be 35 d4 d1 bd
       0.06438993 -0.71467686 -0.2833244 -0.102455534
000370 6f 7e 49 3f 33 f3 5c 3e 6d 5d 5e 3e b6 19 b9 3f
       0.7870855 0.21577148 0.21715327 1.4460971
000380 f5 02 bc bc 21 2f 62 bf ad b6 a2 3e a7 78 24 3f
       -0.022950629 -0.88353163 0.31779996 0.642466
000390 a6 4b 9e 3e c2 af 25 bf 4e e7 08 3e 1e 99 04 bf
       0.3091709 -0.6472131 0.13369486 -0.5179614
0003a0 a9 98 2f bf a9 3e 06 3e d7 f2 13 3e 09 12 83 3e
       -0.68592316 0.1310984 0.14448105 0.25599697
0003b0 38 d8 4f be f1 d0 fe 3f 04 fa 8d 3f 71 4b e8 be
       -0.20297325 1.9907514 1.1091924 -0.45370057
0003c0 51 ed 5c bf b2 68 df 3e 04 c8 ca bc 06 05 31 3f
       -0.86299616 0.43634564 -0.024753578 0.6914829
0003d0 0f b4 99 3e ff 32 e3 be 02 fb a4 3d 89 17 ca 3e
       0.30020186 -0.44374844 0.080556884 0.3947108
0003e0 db 49 23 3f ee 84 3e bf e6 7c 90 be f2 42 20 3f
       0.6378457 -0.74421585 -0.2822029 0.6260215
0003f0 40 06 d7 3d 6a 5c 3f 3e 17 f0 d2 3e 9e 28 9d 3d
       0.10499239 0.18687597 0.411988 0.07673763

fc2.bias f4 [64]
000000 2d 7a 29 3d b2 4f cb bd de 35 83 3e 52 20 8b be
       0.04137628 -0.0992731 0.25627035 -0.27173096
000010 8f 4d b1 3e 78 40 41 bc 42 47 8e 3e 1d 49 61 3d
       0.34629485 -0.011795156 0.2778874 0.055001367
000020 b8 a2 e9 3e 44 0c 53 3e 81 4a c8 3d 9c e4 3b bb
       0.45631957 0.20610148 0.097798355 -0.0028670197
000030 ec 9e 2e 3e 37 51 82 3e 00 f2 4d bd be 0f 21 bd
       0.17052811 0.25452587 -0.050279617 -0.039321654
000040 63 9a 20 be 4d 71 57 bf 2c 27 6a 3b a2 d7 9c 3d
       -0.15683894 -0.8415726 0.0035728915 0.07658316
000050 b4 98 cf be af 0a 7a bb 21 04 11 3e 7e f0 fc bd
       -0.4054619 -0.003815334 0.14161731 -0.12350558
000060 a2 e1 79 3e e3 c7 6d bd 82 0e d5 bd 08 1e c5 be
       0.24402478 -0.058051955 -0.10403158 -0.38499475
000070 a9 d4 52 3f c0 35 4a bc f9 85 8a 3e af 1e bc 3b
       0.82355744 -0.012341917 0.27055338 0.0057409625
000080 ad c7 9e 3e c7 16 70 bd b4 5f 61 3e a9 9d 64 bd
       0.31011716 -0.058615472 0.22009164 -0.05581442
000090 8a 0a e7 3d 41 fb ce 3e 87 e2 cd 3e e8 bf 1f 3f
       0.11281307 0.40426067 0.4021189 0.624022
0000a0 06 3b e1 3e bc ae 4b 3f 35 a9 14 3e 1a da 1f be
       0.43990344 0.795635 0.14517672 -0.15610543
0000b0 73 b8 b3 be a4 54 67 3e 0b 51 dd 3d f2 e3 87 3f
       -0.3510166 0.22590882 0.10806473 1.0616438
0000c0 56 4d eb 3c 66 f8 61 3e 25 54 37 3e c6 e2 88 bb
       0.0287234 0.22067413 0.17903192 -0.004177424
0000d0 30 dd 5a 3e 07 30 73 3e ed 49 7e bd 51 39 c6 3e
       0.21373439 0.2374879 -0.06208222 0.38715604
0000e0 20 b6 6a 3e 48 29 4c 3e 5a b7 5f 3e 6c fe 88 3d
       0.22921038 0.19937623 0.21847287 0.06689152
0000f0 00 31 30 3e e1 b2 18 be 6a 4f 21 3d 17 77 94 3e
       0.17206192 -0.14911987 0.039382376 0.28997108

fc3.weight f4 [4, 64]
000000 7d de 2a bd 9f 2e 98 3d 93 be b9 3f a8 d2 db 3e
       -0.041716088 0.07430767 1.4511284 0.42934155
000010 ae da f9 bc 9a 29 a0 3f da cc 8b 3f 09 76 86 3f
       -0.030499782 1.2512696 1.0921891 1.0504771
000020 e1 cc 5f bf 1d e4 f3 3f 51 a4 aa be ee 40 8e 3c
       -0.87421995 1.905399 -0.33328488 0.017364945
000030 7a 9f 1d bf 31 ba 09 40 00 d0 fc b9 2b 3f 3c bb
       -0.61571467 2.1519892 -0.00048220158 -0.0028724174
000040 e0 56 af 3f 7e 92 46 3f c8 29 92 be fc b1 d9 be
       1.3698387 0.7756728 -0.28547502 -0.42518604
000050 1b ce 39 bf 74 e7 f5 3f c2 de f7 3f 30 b3 c9 bd
       -0.72580117 1.9211259 1.9364855 -0.098486304
000060 23 72 21 bf 6a b3 8f bd ab f5 d7 bd 25 fa 96 3f
       -0.63064784 -0.070166424 -0.10544904 1.1795088
000070 0d 64 ab 3f 97 41 20 bf 3c 19 32 3f fb 5f 12 40
       1.3389908 -0.6260008 0.69569755 2.2871082
000080 83 8d ba 3f dc ba 68 bd b8 68 fa be ee fe 53 bf
       1.4574436 -0.056818828 -0.4890802 -0.82810867
000090 90 ba 50 3f 1f 28 e4 3e b3 05 cc bf 56 a9 a3 3f
       0.8153467 0.4456186 -1.5939239 1.2786052
0000a0 9b b1 df 3f c5 66 9c 3f 36 56 d5 be e8 59 89 3f
       1.7476076 1.2218863 -0.41667336 1.0730562
0000b0 9e 95 7f bf c6 9a ee be 78 4a 06 bf 6c 0b d1 3f
       -0.9983767 -0.46602458 -0.5245738 1.6331611
0000c0 5b 65 0d 3d cd 71 19 bf 00 c1 2e bf ce fa f2 3d
       0.03452049 -0.5993927 -0.68263245 0.118642434
0000d0 b3 2b f2 be fb 2a c1 3f cf ff cf be 72 36 d9 3f
       -0.47298965 1.5091242 -0.40624854 1.696974
0000e0 e6 85 fb be d5 55 b0 bf 4c 5b 08 bf d5 70 d2 be
       -0.49125594 -1.3776194 -0.5326431 -0.4110171
0000f0 5c 59 a4 3c 34 2b ef bd 20 0f 2f bf a6 64 47 3e
       0.020062141 -0.11678162 -0.68382454 0.19471988
000100 96 47 fc bc e0 2d 9e 3b 24 50 c7 3f 80 fd 1d 3f
       -0.030795854 0.004827246 1.5571332 0.61714935
000110 ca 60 20 bd b0 d5 b4 3f 12 46 8e 3f 91 f8 c9 be
       -0.039154805 1.4127712 1.1115134 -0.39447454
000120 d9 20 78 bf 66 6b da 3f e8 c7 0f bf 63 64 97 bd
       -0.9692512 1.7064025 -0.5616441 -0.07392194
000130 51 f4 0c bf bc cf 12 40 4a 4d 9d 3d 46 6d e4 3d
       -0.550603 2.293929 0.07680757 0.11153655
000140 83 38 4a 3f f6 a1 20 be b7 74 24 bf 16 96 0d bf
       0.7899248 -0.15686783 -0.6424059 -0.5530714
000150 aa 97 4b be be 9d c3 3f 8a 0c 1b 40 fa 37 9f bd
       -0.19882074 1.5282514 2.4226403 -0.077743486
000160 3b a9 0b bf 51 ac fa 3c fb c8 b2 3d 25 5d dd 3f
       -0.545551 0.030599745 0.0872974 1.729405
000170 ab 7f 57 3f 61 82 98 be 5f de 4e 3f ff 36 08 40
       0.8417918 -0.2978697 0.8080806 2.1283567
000180 a6 45 d0 3f 12 69 c4 3c 26 e7 23 bf d6 18 bf 3d
       1.6271255 0.023975883 -0.6402458 0.09330909
000190 5c a8 e2 3e 7c 02 13 3f 64 21 95 bf 6b 66 06 3f
       0.44269073 0.57425666 -1.1650815 0.5250003
0001a0 8c ab b2 3f 72 b4 ee 3f 36 6a 7b bf 6e bb bf 3f
       1.3958602 1.8648818 -0.9820894 1.4979074
0001b0 81 fd 15 bf 7d 86 15 bf 62 62 b3 be c4 0f d7 3f
       -0.5858994 -0.5840834 -0.35035998 1.6801686
0001c0 88 f3 e3 bd ab a9 27 bf 59 67 31 bf 80 59 e9 bb
       -0.11130434 -0.6549327 -0.6929832 -0.007121265
0001d0 d4 35 1c bf 0c 07 44 3f d7 eb c5 be d5 15 dc 3f
       -0.61019635 0.7657325 -0.38656494 1.7194163
0001e0 95 8d 1c bf b3 fe d1 bf 2c ea 8f be 2a d8 05 bf
       -0.6115354 -1.6405853 -0.28108346 -0.52282965
0001f0 f4 a9 f0 3c a6 00 0d 3c ce 75 02 be 52 88 77 3f
       0.029377915 0.008606112 -0.12740251 0.96692383
000200 41 e8 91 3c ef bd 09 3d 71 1d 66 3f b8 2b 18 bf
       0.017810943 0.0336284 0.89888674 -0.5944171
000210 46 71 90 bf 9e 81 90 3f 16 09 68 be b2 d4 b9 3f
       -1.1284568 1.1289556 -0.22659716 1.4518034
000220 f0 3f 28 be 07 79 01 40 92 e4 54 bf db 69 06 bd
       -0.1643064 2.023012 -0.8316127 -0.032815795
000230 18 77 a5 be f5 d7 63 3f a0 76 e7 bb a7 71 5d 3c
       -0.32317424 0.890014 -0.0070637017 0.013515866
000240 e4 0f ad 3f 88 78 b9 3e 9d 7d 15 bf 1f 32 d6 be
       1.3520474 0.3622477 -0.58394796 -0.41835114
000250 9f aa da bf 62 0e 11 40 9b 48 e8 3f f0 b6 2c 3c
       -1.708332 2.2665029 1.8147157 0.010541663
000260 27 97 e9 be 10 dd a9 3c 34 5a e2 3c cc 5f b0 3f
       -0.45623133 0.020735294 0.027630903 1.3779235
000270 a8 4b c2 3f cf f0 ad bf 7e 27 c1 3f 27 1c d0 3f
       1.5179338 -1.3589114 1.5090177 1.6258591
000280 72 bf c3 3f b1 01 f1 39 9f 71 ba be 2e 53 f9 be
       1.52928 0.00045968362 -0.3641481 -0.48696274
000290 55 b1 e0 3f a0 50 49 bf d6 ce 08 bf f8 2e 7d 3f
       1.7554117 -0.7863865 -0.53440607 0.98899794
0002a0 b2 11 04 40 98 60 df 3f 52 71 f1 be 38 9e d7 3f
       2.06358 1.7451353 -0.4715677 1.684516
0002b0 5e 87 7d bf 2a b6 a8 be 12 3d ec be fe 88 d3 3f
       -0.9903468 -0.3295148 -0.46140343 1.6526182
0002c0 ca a2 1d bd f8 87 94 be 93 14 37 be f6 e1 84 bd
       -0.038485326 -0.29009986 -0.17878942 -0.06488411
0002d0 a7 45 20 bf 5e 62 35 3f 3d b1 2a bf 96 f8 bb 3f
       -0.6260628 0.7085322 -0.66676694 1.4685237
0002e0 fb a4 d9 be 74 7a 80 bf 74 68 75 be 6f 71 07 bf
       -0.42508683 -1.003737 -0.23965627 -0.5290746
0002f0 68 3a d2 3e 56 c3 5a 3d bf 56 6f bf 15 9d bf 3f
       0.41060185 0.053408943 -0.9349174 1.4969813
000300 36 a4 c3 bd 90 8f e4 bc 2e cf 4a 3f d3 0e 38 3f
       -0.09552805 -0.027900487 0.7922238 0.7189762
000310 f8 7e 54 bf 3b 55 dd 3f 57 fa 96 3f 07 49 2c 3f
       -0.8300624 1.7291635 1.1795148 0.6729893
000320 81 11 81 bf 7a 02 e4 3f 1e 38 b7 be 5b 34 4c 3d
       -1.0083467 1.7813256 -0.35785002 0.049854618
000330 9c ad 17 bf b4 de 16 40 8c 8b 81 bd e6 3a 74 bc
       -0.5924928 2.3573427 -0.063254446 -0.014906621
000340 eb d1 cd 3f ca 12 7e 3f eb 64 54 bf 49 ab 28 bf
       1.6079687 0.9924742 -0.8296649 -0.6588636
000350 89 aa 34 bf 1b d9 78 3f a7 67 0a 40 48 96 75 bd
       -0.70572716 0.97206277 2.1625764 -0.059957772
000360 5e 32 ce be e4 ee fc bd 9b db c2 3b c2 d6 87 3f
       -0.40272802 -0.12350252 0.005946589 1.0612414
000370 ff bc d7 3f 2c 4b 6d be ba f9 b0 3d 4f 17 21 40
       1.6854552 -0.23173207 0.086413816 2.5170476
000380 25 c2 88 3f 60 cc 01 be 27 5d d9 be 8a 3f 5d bf
       1.0684248 -0.12675619 -0.42453882 -0.8642508
000390 34 1f 8c bc d0 c5 15 bd 95 da bf bf 51 04 a4 3f
       -0.017104723 -0.0365656 -1.4988581 1.2813817
0003a0 19 bf df 3f dd 25 ae 3f 5d c6 c9 be ab c9 e3 3f
       1.7480193 1.3605305 -0.39409152 1.7795919
0003b0 a8 73 56 bf 9c bc da be 05 0f 1c bf b7 54 d0 3f
       -0.8377023 -0.42722023 -0.6096042 1.6275853
0003c0 74 16 c0 3d de fa 13 bf 53 54 f8 be eb be f1 3b
       0.093792826 -0.5780467 -0.48501834 0.0073774955
0003d0 7e c5 fc be f2 6f de 3f f1 b6 bc be cb 0b f7 3f
       -0.49369425 1.7377913 -0.36858323 1.9300474
0003e0 7f cc 09 bf 45 20 83 bf fc d8 3c bf 03 61 e5 be
       -0.5382766 -1.0244223 -0.7376859 -0.44800577
0003f0 db fc 2d bf b3 0b ba bb 7d f7 72 be 41 74 54 3f
       -0.6796395 -0.005677664 -0.23727222 0.8298989

fc3.bias f4 [4]
000000 e7 25 d5 be b0 58 ad be 09 58 41 3e c0 28 8a be
       -0.4163048 -0.33856726 0.18881239 -0.26984215
