DQN/skiing_results/Skiing-ramDeterministic-v4_weights.pth (torch_old, 51472 bytes, 6 tensors)

fc1.weight f4 [64, 128]
00000000: 5485 8e3d 2f3f 4abd 81c5 593c 8cfc c0bd
00000010: ffa4 07bd 401b 90bd e24f 853d 0260 b4bd
00000020: b50b 7e3d 3b45 43bc 59d2 19bd d571 9cbd
00000030: 5099 7f3c aaa4 6abd 3efb 6e3d be9b a0bd
00000040: 345f 1fbd f899 ad3c 53b9 90bd 0313 9cbd
00000050: 2c6d 973d d875 5fbd 621d 323c e813 fdbc
00000060: af32 2ebc 11f5 2b3d c25c 243c 1078 443c
00000070: 0ffd d4bc 90c8 473c edc7 81bd c12c 5cbb
00000080: cc8c aebd 596d 94bc a931 00bd a2aa b0bd
00000090: d1ac e83b f071 3d3d 3a70 39bd 17ed 863b
000000a0: 8880 833c 630c ec3c 74be aebc 8229 23bc
000000b0: 2558 3ebd 6ce9 3cbd bcff 3c3d f0e5 543d
000000c0: 60f2 9ebb 636e 88bd 550c 89bd 203d f53b
000000d0: 10f7 f0bc c43f 95bd 5ec6 b8bd 1099 293d
000000e0: 067d b4bd 0aba 8a3c e2f5 b1bd a795 6b3d
000000f0: 3965 9b3d 5487 d2bb c74f fe3c b3e4 6bbd
00000100: 98e0 5b3d c133 3d3b f472 0b3d 1d31 43bc
00000110: c881 2a3d 61a7 a2bd 57e8 30bd 1e92 333c
00000120: 7c63 babd 582e 0f3d ae60 77bd 3d1a debc
00000130: c2d2 81bd 120d 053c 47f6 9e3d d853 c53c
00000140: a1f8 733d 669f 66bd c4b5 e03c 28ae 183c
00000150: 65fe 45bd e350 d43c 3758 ef3c ea39 bdbd
00000160: 37bd 8fbd eaef adbd d54c 74bc 15bb 8dbd
00000170: 1f4c 66bd 02fc a2bd 4e06 353d cc9b 8e3c
00000180: cef5 233d faf4 143d db5f 39bb 98f5 1c3d
00000190: 9b4f 73bd fdaf acbc 905c de3c ab4b 8b3d
000001a0: 04de c13c 30fc 4b3d 634d 58bd 7771 9a3d
000001b0: 3151 d43a fc74 e1bc 04b1 ba3c 1777 1ebd
000001c0: 18d1 d03c ecc5 a03d 6edf a13d 7c09 5b3d
000001d0: e4c1 c3bc 63ba 9e3b 3ce4 223d 553c 51bd
000001e0: a4c6 983b bab9 70bd 9a8a 2bbd 690b 68bd
000001f0: eab3 9cbd b839 a83c 1049 073d 0fbc 8dbd
00000200: 75a4 05bd 4ef8 ab3c c22c 9ebd 62d5 bc3b
00000210: d090 083d b10b 99bd 10cf 503d 3e7e 503d
00000220: 18d1 3d3d abc0 b0bd ca7e 1ebd 54ec c3bc
00000230: cbf3 53bd c008 ec3c 820f 11bd 0402 3a3d
00000240: f973 babd 92b3 76bd 6c8b 103d 4ad3 17bc
00000250: b077 373d f5b5 a03d aa0e 7bbd 9dd7 25bd
00000260: a4fb 7bbc d247 78bd 351b 57bd 7e82 abbd
00000270: ab84 46bd b599 8e3d 1b01 67bc 2772 b83c
00000280: a5f8 663d 046b 06bd 7210 29bc 8ce1 da3c
00000290: 18f3 2f3d 3460 c1bc 42d5 d7bb 4d3f 8c3d
000002a0: 45ae 193c 7295 893d fa8f ef3c 045a fd3c
000002b0: 668d 5abd e92c ff3c 3fee 973d 5786 4dbd
000002c0: 46db e53b aedc 553b 44a3 fbbc 3ce5 24bb
000002d0: dac5 a7bd 5f80 853d 9046 65bd 6675 6cbd
000002e0: 6772 94bd ba9d 8f3d c19c 9dbd f987 b1bd
000002f0: 3d19 81bc ba79 4bbd d085 85bd 7100 1c3d
00000300: 9302 743d 7439 d7bc db34 c23c c8b5 78bc
00000310: 9fe4 9a3b f019 333d d77c b1bd fa08 a6ba
00000320: 09d5 1c3d 9eac 10bd 77a3 953d bbfa 91ba
00000330: 613f b2bd c192 033d 59cd 89bd 83d3 493c
00000340: de37 9dbd 65be 9cbc 2e79 9b3d 8da6 1e3d
00000350: 55e5 29bd a11d 24bd 9710 1cbd a4c8 32bd
00000360: 95a9 74bd 9641 82bd 1d88 3b3d d54f dcbb
00000370: 948f 1dbd e5b2 423d 3c81 aa3c d017 00bc
00000380: f1ec 073d a11a 7abd 3f41 9ebd c20b 5cbd
00000390: 0e7e 47bd 80fc 973d 0a0f b0bd 77da 8e3d
000003a0: ebe0 b03d 8d74 c53a 69c9 0abc fa26 80bd
000003b0: 5484 133d 11db a8bd e866 67bd e022 75bb
000003c0: 4410 4fbd 904e 36bd 11e7 333d 2af0 3b3d
000003d0: e2e6 a2bc a7e2 b8bd 8a36 72bd 13c1 cc3b
000003e0: 376e 1bbd 8bc6 78bd 8cd5 313a 9a01 4bbc
000003f0: 0d52 69bd 85c8 79bc 77f9 ae3b 2398 17bd
0.06959024 -0.049376663 0.0132917175 -0.094231695 -0.033116337 -0.070364475 0.06509377 -0.088073745
0.062022883 -0.011918361 -0.03755412 -0.07638899 0.015600517 -0.057285942 0.058345072 -0.078422055
-0.038909152 0.021191582 -0.07066598 -0.07620814 0.0739387 -0.054555744 0.010871263 -0.030893281
-0.010632201 0.04198176 0.010031881 0.011991516 -0.025999574 0.012193814 -0.06336961 -0.0033596011
-0.085229486 -0.018118547 -0.03129736 -0.086262956 0.0071006794 0.046251237 -0.045273043 0.004117619
0.0160525 0.0288145 -0.02133105 -0.009958627 -0.04647078 -0.046121046 0.046142325 0.051977098
-0.0048506707 -0.066616796 -0.06691805 0.0074840933 -0.029414684 -0.07287553 -0.090222105 0.041405737
-0.08812909 0.016934413 -0.086894765 0.057515766 0.07587666 -0.006424824 0.0310439 -0.05759115
0.053680986 0.002886996 0.034045175 -0.011913565 0.041627675 -0.07942081 -0.043190327 0.01096013
-0.091010064 0.034956306 -0.060394935 -0.02711212 -0.06339027 0.008120792 0.077618174 0.024087831
0.059563283 -0.056304358 0.027430423 0.009318866 -0.048338313 0.025917476 0.029216869 -0.09239562
-0.07018512 -0.084930256 -0.014910896 -0.06920449 -0.05622494 -0.07958223 0.044195466 0.017408274
0.04002934 0.03636644 -0.0028285894 0.038320154 -0.05940209 -0.021080012 0.027143747 0.06801542
0.023665436 0.04980105 -0.052808177 0.07541173 0.0016198513 -0.027521603 0.022789486 -0.03868779
0.025490329 0.078502506 0.07903944 0.053475842 -0.023896165 0.0048439964 0.039768443 -0.051082928
0.0046623517 -0.058770873 -0.041880228 -0.056651507 -0.076515034 0.020535335 0.033028662 -0.06920635
-0.03262754 0.020992424 -0.077233806 0.005762742 0.03334123 -0.07472933 0.05097872 0.050901644
0.046341985 -0.086304985 -0.038695134 -0.023916401 -0.05174617 0.028812766 -0.03541518 0.04541208
-0.09104151 -0.060229845 0.035289213 -0.009266684 0.044791877 0.078472055 -0.06129328 -0.040488828
-0.01537982 -0.06061537 -0.05251618 -0.08374499 -0.048466366 0.06962911 -0.014099385 0.02251537
0.05638947 -0.0328169 -0.010318862 0.026718877 0.04295644 -0.023605444 -0.0065867016 0.06848011
0.009379928 0.067179576 0.029243458 0.030926712 -0.053357504 0.031149345 0.07418489 -0.050176945
0.007014665 0.0032632756 -0.0307175 -0.0025161048 -0.08192034 0.065186255 -0.055975497 -0.057729147
-0.07248383 0.07012506 -0.07695914 -0.08668513 -0.015759105 -0.049676634 -0.06519663 0.03808636
0.059572767 -0.026272513 0.023706844 -0.015180059 0.004726961 0.043725908 -0.086663894 -0.001266747
0.038289104 -0.03532087 0.07306569 -0.0011137346 -0.08703495 0.032122377 -0.0672862 0.012318495
-0.076766714 -0.019133756 0.075914726 0.038733054 -0.041478474 -0.04006732 -0.03810176 -0.043648377
-0.05973204 -0.06360166 0.045784105 -0.006723384 -0.038467005 0.04753389 0.020813577 -0.007818177
0.03318495 -0.06106055 -0.077272885 -0.05372215 -0.0487042 0.074212074 -0.085966185 0.069752626
0.0863665 0.0015064642 -0.0084708715 -0.06257434 0.03601487 -0.082449086 -0.056494623 -0.003740482
-0.05055262 -0.044508517 0.043921534 0.045883335 -0.019885484 -0.090276055 -0.059134044 0.006248602
-0.037946906 -0.06073622 0.0006783835 -0.012390519 -0.056963015 -0.0152455615 0.005339797 -0.037010323

fc1.bias f4 [64]
00000000: e9a6 70bd fb39 90bd f57b c3bc 2200 6fbd
00000010: e886 073d 6f19 c9bc 2da5 8abd dd17 23be
00000020: d0a0 8fbd f6b7 82bd d301 d93d 41ce 3ebe
00000030: cf85 c03c f252 353d bfa3 02be 6678 4bbe
00000040: 64a2 6bbd e3be a4bd 0832 383a 7165 3abe
00000050: b388 9bbd 61e9 8cbd 5166 00be 7f60 b0bd
00000060: b104 0cbb 6e30 2abd 9baf ff3c 9893 05bd
00000070: 014f d5bc 01ab 21bc 3e8f a3bd f2e4 053c
00000080: fb3e acbd 6ddf 20be ab0e 0f3d ecfa 45bd
00000090: c0cb f1bc 2ca9 03bd 085b 43be 48f0 523d
000000a0: 187b b3bd b804 19bd ea59 f0bd 89a3 cabd
000000b0: 56ef 163d 6084 dd3c fbcc bebd 9d0e 1bbc
000000c0: 9d26 dfbd cc4d e7bc d885 3cbb 0619 80bd
000000d0: b58f 8bbd 2f01 b23d 5dff b73e 1ff5 0b3d
000000e0: 9583 7cbd 26c5 ee3c cfd7 de3b 6ef7 2abd
000000f0: 3ea3 78bd 684f 2ebd 7812 54bc 5cd9 89bd
-0.058752928 -0.07042309 -0.023862818 -0.058349736 0.03308764 -0.02454826 -0.06769786 -0.15927072
-0.070130944 -0.06382744 0.10596051 -0.18633367 0.023501305 0.044268556 -0.12757777 -0.19870147
-0.057527915 -0.08044221 0.0007026498 -0.1820276 -0.07594433 -0.06880451 -0.1253903 -0.08612155
-0.00213651 -0.041550092 0.031211665 -0.03261146 -0.026038649 -0.009867431 -0.07986306 0.008172261
-0.0841045 -0.1571023 0.034926098 -0.048335 -0.0295161 -0.032143757 -0.19077694 0.05149868
-0.08763713 -0.037358016 -0.117359 -0.09894473 0.036849342 0.02704066 -0.09316441 -0.009463933
-0.10896037 -0.028235339 -0.00287663 -0.06254773 -0.06814519 0.08691632 0.35937014 0.034169313
-0.061648924 0.029146742 0.0068006287 -0.041739874 -0.060702555 -0.042556196 -0.012943856 -0.06730911

fc2.weight f4 [64, 64]
00000000: 1998 ffbd c61d c43d 49ee b7bc 686b 2fbd
00000010: 83bb a6bd b64d eabc 819f bfbd f598 7cc0
00000020: eed8 63bd 5a07 533d 27b3 e53d 77fd 98bf
00000030: 8f1d 06be 97c1 78bc d14a ae3e 0111 073e
00000040: 8c5c 73bd 8c3b 8a3d 1b65 9f3c b2fb 2abe
00000050: f533 78be fa62 3a3d 59db 5f3f 4f1e ac3d
00000060: 1a47 963d 34e2 c73d 7867 fabc c30f 92bd
00000070: 3268 1a40 da73 76bd f304 0ebd 9b48 f6bd
00000080: b8ba 593d 09fb 3dbe 58e3 e9bd 352f c0bd
00000090: 2d8f e9bc 520f e93d 6906 60be ab11 f23e
000000a0: d053 fe3d 4217 1c3d bf4b 573c 5ddb bdbd
000000b0: 5e3e b43d c54c cb3c 8b98 c5bd 24c1 d83c
000000c0: 26c1 4abb 64f6 783c a9ee ef3d 94f8 ab3d
000000d0: 22fd 15bd f8fe ebbd 10e9 be3e 1828 2f3c
000000e0: d76a b9bd 6c51 c43d 8dec fc3b dffc f7ba
000000f0: 97ab 53bd 60a7 3d3d db2b c93d d199 efbc
00000100: 74a2 503c df1a ccbd 62da e73d 29bc 4cbd
00000110: 4fd0 873d 0866 42bd ccbd b43d f039 43c0
00000120: f77f 9abb 638d 4a3d b09d cb3e 1f3e 54bf
00000130: 8046 afbc 3201 1c3d c57a bdbe 6ea7 af3e
00000140: 9e28 0cbe 8420 7abd eb4b 213d 9d6d 82be
00000150: d642 84be 7327 333a 8427 e63e 3f99 e8bd
00000160: 9b92 1bbd 0006 15ba 09ea c4bd 6cc7 ccbd
00000170: e23d 1840 d07d 95bd f54f 45bd 3557 043e
00000180: 13bb 45bd 1406 9cbd 2ab9 07bd 0a6d 8e3d
00000190: 879b 1bbd f865 85bd 6392 4bbd c909 f63d
000001a0: 0b22 81bc 0b9c 9e3d 1ee4 4fbf 8c75 a1be
000001b0: f8ae dabc 9232 89bd 6f5d 7d3d fe83 52bd
000001c0: d6d7 8bbd a5b2 b4bd 8316 bbbd 68fe f4bd
000001d0: f836 913d d467 ee3d 664b f73e d317 e53d
000001e0: 9952 983c de04 f1bd 2b3d 983d b923 afbd
000001f0: 0d3b 303d 001e 623b bb69 813d f183 033e
00000200: d551 d7bd 2025 673c 3ae9 5bbe 2f12 793d
00000210: b32b eabc 2454 c5bf 6a4c 44bd 4f8b 733d
00000220: 0210 a8bd acd1 823d a59d 6cbd c559 193f
00000230: 6d31 b13c ad4d e63c ecbd d53e 7b22 ad3c
00000240: 4757 c93d 48fb ad3c c044 99bd ca18 5d3e
00000250: 901f 523e 4046 17be be85 7a3e b929 29bd
00000260: 4ebf e039 ec90 c83d 603d 233d b332 aebc
00000270: 202c 00c0 0be4 7a3d a134 76bb a54a e2bd
00000280: 353e ff3d a0bd 6e3d e824 85bc 1007 84bd
00000290: 715c b83c b889 ebbd 4e13 6b3e c808 b7bf
000002a0: 79ee db3d 5807 dabc 0172 f23e affc aa3d
000002b0: 4e33 be3d 779a b43d a133 64bd 2c1a c63d
000002c0: e0d4 5abd a1ff babb dd0a f93c fc27 f03d
000002d0: eae9 eb3d 8c4e 813d 99d7 1fc0 0fa2 03bd
000002e0: a369 163b 9096 7cbc f2d8 b0bf 1d54 c8bd
000002f0: 1478 4bbd a8cb 87bc 8027 3b3d da16 533b
00000300: 56d8 cebd 284a d53c d893 fe3d 720d 253e
00000310: deae 863d 1a86 edbf cad8 9e3d 16a5 8c3e
00000320: 3e54 dd3c d2ad f13c a4dd c93b c797 0e3f
00000330: e6f8 ffbd 2e55 dbbd 948c be3e 8ac3 cc3e
00000340: 9af2 c43d b043 b63d 674f a73c d3a4 393e
00000350: fed1 393e 46c1 26bd 1d5f ee3e 79ec 073d
00000360: f707 10bd f0f0 f73c 08df 803d 7e46 e8bd
00000370: 5c69 0fc0 69d2 7dbd 0c33 99bd 8b67 f5bd
00000380: ef8f 643b 6fe6 433e 705c 173d 2c9e 1d3e
00000390: e8c9 5c3d 6cae 6cbd 4851 113e 0af4 6fbf
000003a0: 76e2 fbbd f0c3 a03c 3ff8 0c3e 1b4e 253e
000003b0: d260 853d f54f 17bd f3b2 01be 2daa d73d
000003c0: d4b6 323c 3a71 2f3d 02f5 7b3d 7632 d33d
000003d0: d41e 80bd d803 fb3c 1158 26c0 916c 4fbd
000003e0: 9532 e0bd 0b7f 71bd ce0e 94bf f470 91bc
000003f0: 11de 3d3d 7a1d c6bd 2818 89bd 9002 c1bc
-0.12480182 0.09575991 -0.02245249 -0.04282704 -0.08141234 -0.028601509 -0.09356595 -3.9468358
-0.055626802 0.051520683 0.11215811 -1.1952351 -0.13097213 -0.015182874 0.34041455 0.1319008
-0.05941443 0.06749639 0.01945739 -0.16697577 -0.2423857 0.045504548 0.8744407 0.084042184
0.0733778 0.09759942 -0.030566916 -0.071319126 2.4126096 -0.06016908 -0.03467269 -0.12025567
0.053156585 -0.18552794 -0.114203155 -0.09384004 -0.028510654 0.11379875 -0.21877445 0.47279105
0.1241833 0.038108118 0.013140618 -0.09270356 0.08800958 0.02481688 -0.09648236 0.026459284
-0.003093788 0.015195463 0.11715443 0.08397022 -0.03661836 -0.11523241 0.37287188 0.010690711
-0.09053581 0.095858425 0.0077186287 -0.0018919966 -0.051677313 0.0463022 0.09822818 -0.02924815
0.012734044 -0.09966063 0.1132095 -0.04998413 0.066315286 -0.047460586 0.088252634 -3.0504112
-0.0047149616 0.049451243 0.39768744 -0.8290729 -0.021395922 0.038087077 -0.37007728 0.34307426
-0.13687369 -0.061066166 0.03937904 -0.25474253 -0.25832242 0.00068341865 0.44952023 -0.113573544
-0.03798161 -0.0005684793 -0.09614951 -0.09998974 2.378777 -0.072993875 -0.048171956 0.12923892
-0.04827411 -0.07618347 -0.03313557 0.06954391 -0.03799012 -0.065135896 -0.049700152 0.12013585
-0.015763303 0.077446066 -0.81207454 -0.31534994 -0.02669476 -0.06699099 0.061856683 -0.05139541
-0.06828277 -0.08823136 -0.09135153 -0.11962587 0.070905626 0.116408974 0.48299712 0.11186185
0.018594073 -0.117685065 0.07433542 -0.085517354 0.043025065 0.0034502745 0.063189946 0.128433
-0.10513655 0.014107972 -0.21475688 0.060808357 -0.02858529 -1.5416303 -0.047924437 0.059459027
-0.08206178 0.06387648 -0.05776753 0.599026 0.021630013 0.02811321 0.4174646 0.021134606
0.098311 0.021237984 -0.07483816 0.21591488 0.20519853 -0.14772892 0.24465081 -0.041299555
0.00042867142 0.09793267 0.039853454 -0.02126441 -2.0026932 0.061252635 -0.003756799 -0.110493936
0.12463037 0.05828631 -0.01625295 -0.064466596 0.022505017 -0.11500877 0.22956583 -1.4299555
0.107388444 -0.02661483 0.47352603 0.08348977 0.09287129 0.08818524 -0.0557133 0.09672961
-0.05342567 -0.005706743 0.030400688 0.117263764 0.11519225 0.0631381 -2.497534 -0.032136973
0.0022951148 -0.015416756 -1.3816206 -0.09781668 -0.049675062 -0.016576603 0.045691967 0.0032209666
-0.100998566 0.026036337 0.12430543 0.1611841 0.06576322 -1.855655 0.07756193 0.274697
0.027017709 0.02950183 0.006160455 0.55700344 -0.124986455 -0.10709606 0.37216628 0.39992934
0.09616585 0.08899629 0.020423604 0.18129282 0.18146512 -0.040711664 0.4655694 0.033184502
-0.035163846 0.030266255 0.0629254 -0.1134157 -2.2408056 -0.06196824 -0.074804395 -0.1198264
0.003487583 0.19130872 0.03695339 0.15392369 0.05390349 -0.05778353 0.14191163 -0.9373175
-0.12299053 0.01962468 0.13766573 0.16143076 0.06512608 -0.036941487 -0.1266592 0.10530505
0.010907847 0.04283259 0.061512955 0.10312359 -0.0625588 0.030641481 -2.5991251 -0.050640646
-0.10947148 -0.05895905 -1.1567018 -0.017754056 0.046354357 -0.09673591 -0.066940606 -0.023560792

fc2.bias f4 [64]
00000000: ac37 1d40 f7f4 0d40 f66e b5be fd05 82be
00000010: 80cb 07c0 5d54 f6bf 9e6e d23d ac41 f1bd
00000020: 07f5 7fbf f493 9dbc 07be 0ebd 06ce dabf
00000030: a961 03c0 2967 3940 4733 d83c 8293 9cbe
00000040: 4ce3 f3bc a0ea f4bd 8242 eb3e 6d1c 7cbd
00000050: c2d4 84be 68ee 703f f1f8 dfbd 947e b83d
00000060: b00a f2bd b852 67be 2ca8 04c0 1b28 6ebe
00000070: fa7d 11be 4607 cbbd 762b 03be 98cd e5bd
00000080: a033 b1be 01f6 1ebf e2fc b2bd 1e30 233d
00000090: a6c1 33bf ed51 10bd 45ac dd3c b4d2 7b3f
000000a0: 930a 05c0 7282 2940 69ab 99be 1f26 b1bd
000000b0: d1e8 8bbe 33c4 6c3f 8536 30be 27ab 973e
000000c0: ee94 22be e3d3 9e3d dd4a 18be b86c 0bbe
000000d0: ff01 383e f797 503f e2a2 77be b20d a13d
000000e0: f283 2d3f f23b f33c 65ad c6be a562 f339
000000f0: 5e3f c8bd 0582 733d a346 1fbe 5e21 f73e
2.456523 2.2180765 -0.3543622 -0.25395194 -2.1217957 -1.9244496 0.10275005 -0.11780104
-0.9998326 -0.019235589 -0.034849193 -1.7094123 -2.0528357 2.8969214 0.026391638 -0.3058129
-0.02977147 -0.11958814 0.4594918 -0.061550546 -0.2594357 0.9411378 -0.10936154 0.09008518
-0.11818445 -0.22590148 -2.0727644 -0.23257487 -0.14208212 -0.09913497 -0.12809548 -0.112208545
-0.346097 -0.6209412 -0.0873964 0.03984081 -0.7021736 -0.03523438 0.027059684 0.9836838
-2.0787704 2.6485868 -0.30013588 -0.08649849 -0.27326062 0.92486876 -0.17208298 0.29622766
-0.15877125 0.07755258 -0.14872308 -0.13615692 0.17969511 0.8148188 -0.24183229 0.0786394
0.6777946 0.02969167 -0.38804165 0.00046422068 -0.09777711 0.05945017 -0.1555429 0.48267645

fc3.weight f4 [3, 64]
00000000: d829 1fbf 3e14 8cbe bf3a c7be 7223 23be
00000010: 771b 8c3d bea2 583f 7ac6 36be d96a 77bd
00000020: 52b3 c13e 2100 39bd 066d 81b9 8bec 853f
00000030: f45c 2e3f e0b2 a0bf cdad bd3d a4ba 1f3f
00000040: 064a 8bbc c1d5 e43b e50a 113f 055b bbbc
00000050: cf7a dcbe d899 153e 8062 333d 30a0 3ebd
00000060: 855a 42bd ed79 f63b 9cdc 693f c14a 09be
00000070: 9de1 78bd 7bc7 61bc 7825 36bc 3b99 973d
00000080: b2e8 0fbe 473a 6d3e b13e 963d 5387 88bb
00000090: dafd 903f f0ed 5b3d a062 c63e 7b09 ee3b
000000a0: 8efd 893f e85a 59bf 39d2 93bf f419 94bd
000000b0: a396 a1bf c6f2 983c 02c4 e53d ac58 2bbf
000000c0: 3aaf c538 0cd5 e23d c21b 92be c6c2 863d
000000d0: 6a22 17be 121f 3f3c 8a3f bf3d 5f42 65bd
000000e0: 32ac 013d 04ac 413c 64c9 e23e 882e 8a3c
000000f0: f434 e5bc cf1f a53d 1108 ad3c 0507 a03e
00000100: 774b 1dbf c154 f0be 3d1e 5ebd d581 09be
00000110: 6590 fe3d afa2 633f 4f47 20be f258 2c3e
00000120: 78ac 343e 14fd b03d 912c f83c c376 803f
00000130: 58d5 2b3f 97d9 94bf 8a94 8e3e c1d9 623e
00000140: 6f2a 58bd 7ee0 91bd 9990 013f 8f62 293e
00000150: 4314 50bf 5c73 833e 08ce 88bd d0c0 8b3d
00000160: caa3 8c3e a3fe ef3e b6f2 513f c85a 32be
00000170: 7b82 55bd c827 263d 89b4 a23d 8276 b43d
00000180: 8d19 8dbe bafe 2dbe 6846 a3bc 325c 023d
00000190: 6a55 883f 8d74 053c 9be9 c8bc 7838 d83b
000001a0: 4c75 853f 6a49 41bf cc28 3fbf ff87 e73c
000001b0: 9930 08bf 0a9b 5abc 9b1f 50bb 9a6b dbbd
000001c0: 6f7d 3abd 00f6 783b 78ef 99be 2e37 1dbd
000001d0: 9f1d 973d 86d1 813c f57a 02bc 9012 7abd
000001e0: 037e c4bb 92dc dcbd 5458 92be c0ac 163d
000001f0: 2396 f1bd a7ff 103d 9263 a6bb 993e 6d3f
00000200: eb67 1cbf c532 34bd 2f5e dcbe 2314 78be
00000210: a631 a73d fe2a 3a3f 8e5c 57bc d86a b4bd
00000220: 04d2 903d 1c25 023d ae27 94bd 7cec 953f
00000230: 8a81 323f 170c a5bf adb7 0e3f 902f 653e
00000240: 68d8 d9bc ab0c 943c 80d5 143f d280 29bd
00000250: 7fcd 1abf 71ab 61bd f88c 2a3d cc46 243d
00000260: bc50 87be ed0f b83e 9cf4 793f e78e c13c
00000270: f9b2 81bd 342c 4e3d fdb2 95bd 1f86 e2bc
00000280: 1bd4 e8be 50dd 283e 488c 743d 74b5 1cbd
00000290: 09e3 823f 1c7b a33c 47da 243f d77f 15bb
000002a0: 0098 693f 0194 64bf 304a 95bf 9359 dcbc
000002b0: 75f7 c8bf 7203 493d 4c54 563c 080a 22be
000002c0: e079 58bd 281b 18bd 1e42 96be 8540 dcbd
000002d0: 6165 64be 3691 d73b 3be9 113f 9c45 ba3d
000002e0: 8e9b 8c3c 926f ca3b a94e febd 270a 723d
000002f0: 333d 753d 37f9 a9bc 030b 133c 1cc6 9d3f
-0.62173223 -0.27359194 -0.38912007 -0.1593149 0.06841176 0.84623325 -0.1784915 -0.060404632
0.37832123 -0.04516614 -0.00024686026 1.0462812 0.68110585 -1.2554588 0.092616655 0.62394166
-0.01700307 0.0069834893 0.5665725 -0.02287055 -0.43062446 0.14609468 0.04379511 -0.046539485
-0.047449607 0.007521859 0.9135225 -0.13407423 -0.060762037 -0.01378047 -0.011117332 0.07402273
-0.1405361 0.23166762 0.07336176 -0.0041665225 1.1327469 0.05369371 0.3874712 0.0072643138
1.0780504 -0.84904337 -1.154853 -0.07231513 -1.2624096 0.01867045 0.11219026 -0.6693218
9.4263305e-05 0.11075792 -0.28536803 0.06580119 -0.14759222 0.011665123 0.09338291 -0.0559715
0.03165836 0.011820797 0.44294274 0.016867891 -0.027979352 0.08062708 0.02112201 0.31255355
-0.61443275 -0.46939662 -0.054228056 -0.13428433 0.12429885 0.8892011 -0.15652202 0.16830805
0.17643917 0.08642021 0.030294688 1.0036243 0.6712241 -1.1628903 0.278477 0.22153379
-0.052774843 -0.071228966 0.50611264 0.16541503 -0.81280917 0.2567395 -0.06679922 0.068238854
0.2746871 0.4687396 0.8201097 -0.17417443 -0.05212639 0.040565282 0.079445906 0.08811666
-0.27558556 -0.16991702 -0.019931033 0.031826206 1.0651066 0.008145464 -0.024525454 0.0065985285
1.0426421 -0.75502646 -0.74671626 0.02826309 -0.53199154 -0.013342628 -0.003175712 -0.10713883
-0.04552978 0.0037988424 -0.30065513 -0.0383827 0.07378697 0.015846979 -0.007963886 -0.06105286
-0.005996467 -0.10784258 -0.28583014 0.03678584 -0.117962144 0.03540006 -0.0050777877 0.9267364
-0.61096066 -0.04399373 -0.43040606 -0.24226432 0.081637666 0.7272185 -0.013144625 -0.08809441
0.07071307 0.03177367 -0.07234131 1.1712794 0.6972891 -1.2894315 0.55749017 0.22381425
-0.026592448 0.018072447 0.58138275 -0.04138262 -0.6046981 -0.05509514 0.041638345 0.04010658
-0.26428783 0.3594965 0.9763887 0.023627711 -0.063329645 0.050335124 -0.0730953 -0.027651845
-0.45474324 0.16490674 0.059704095 -0.038258985 1.0225536 0.019956164 0.64395565 -0.0022811794
0.9124756 -0.89288336 -1.1663265 -0.026898181 -1.5700518 0.04907555 0.013081621 -0.15824139
-0.052850604 -0.037135273 -0.29347318 -0.107544936 -0.22304298 0.00657859 0.56996506 0.09095308
0.017164018 0.006177851 -0.12417347 0.059091713 0.059872817 -0.020748718 0.008974793 1.2326083

fc3.bias f4 [3]
00000000: 3096 c4bf 5220 12c0 bc26 23c0
-1.5358334 -2.2832227 -2.5492392
