DRQN/lunarlander_result/LunarLander-v2_r5_weights.pth (torch_old, 352021 bytes, 8 tensors)

lstm.weight_ih_l0 f4 [512, 8]
0	0xc110399e	-9.014067
1	0xc02d3908	-2.706606
2	0xc09eb71f	-4.9598536
3	0xbe847c9a	-0.25876313
4	0x3d85c257	0.06531208
5	0xc10ec331	-8.922654
6	0xbfba88ca	-1.4572995
7	0xbfe97c28	-1.8241014
8	0xbda3d2ba	-0.07999177
9	0x3f636ce8	0.8883805
10	0xc10a8665	-8.657811
11	0xc15fd3f0	-13.989243
12	0x400bf134	2.1865969
13	0xc1605c8d	-14.022595
14	0xc11d109d	-9.816556
15	0xc0cc08d3	-6.376077
16	0xc01994ac	-2.3996992
17	0xbfc3b471	-1.5289441
18	0x40127c4e	2.288837
19	0xc0432145	-3.0489056
20	0x3e81a734	0.25322878
21	0xc1040d1d	-8.2532015
22	0xc143e680	-12.243774
23	0xc0aa6bcf	-5.32566
24	0x40327526	2.7884002
25	0xc0cbeee2	-6.3729105
26	0x40e3a17e	7.1134634
27	0x4132e3ff	11.180663
28	0xbc75136f	-0.014958247
29	0x41a9468b	21.159445
30	0xc07b6897	-3.9282587
31	0x3fe7b336	1.8101566
32	0x411a0871	9.627061
33	0xc16d9c04	-14.85059
34	0x41244f56	10.269369
35	0xc000b9c1	-2.0113375
36	0x3f0cdad1	0.5502139
37	0x41e8d27b	29.102774
38	0xbf4f1aab	-0.8090007
39	0x41869b48	16.82582
40	0x40021294	2.032384
41	0xbf27ba7e	-0.6551894
42	0x3fb0a364	1.3799863
43	0x40ec0b86	7.3764067
44	0x4077b644	3.8704996
45	0x41584d5e	13.518888
46	0xc0f52e16	-7.6618757
47	0x3edec3bc	0.43508708
48	0xc047fe42	-3.1248937
49	0xc1035742	-8.208803
50	0x3fd70d8c	1.6801009
51	0x412eaf97	10.917869
52	0x3ffdd0ac	1.9829307
53	0xbf5ea591	-0.86971384
54	0xc07db8bf	-3.964401
55	0xc0bbe072	-5.871148
56	0x3e9c66f5	0.305473
57	0xbf269200	-0.6506653
58	0xbff16083	-1.8857578
59	0xbf3609c0	-0.7110863
60	0x40013e7d	2.019439
61	0x3f4ba379	0.79546314
62	0xbea48128	-0.32129788
63	0xbe1d3d09	-0.15355314
64	0x40e30e68	7.0955086
65	0x4039e20a	2.9044213
66	0x4118aff7	9.54296
67	0xc113f734	-9.247852
68	0xc05e4b53	-3.4733474
69	0xbf4bb334	-0.7957032
70	0xc1c687a6	-24.816235
71	0xc11ce8c6	-9.806829
72	0x40216572	2.5218167
73	0x4007c330	2.1212883
74	0xc120b1cb	-10.0434065
75	0xc1aacddb	-21.350515
76	0x411f99e6	9.975073
77	0xc1830763	-16.378607
78	0xc14fb048	-12.980537
79	0xc0b4e991	-5.6535115
80	0x405fc4bd	3.496383
81	0xc000d88a	-2.0132165
82	0xc110d5ee	-9.052229
83	0xc1252ee0	-10.323944
84	0x418d2b94	17.646278
85	0xc1c3f380	-24.493896
86	0xbf10d329	-0.56572205
87	0xc01ace27	-2.4188325
88	0xc0aaf25f	-5.3420863
89	0x3fa08b28	1.2542467
90	0x40f108a2	7.532304
91	0xc172c7bc	-15.173763
92	0x3fa5ab2d	1.2942864
93	0xc0d74315	-6.7269387
94	0xc181e743	-16.23792
95	0xc178d038	-15.550835
96	0xbeaa9dfa	-0.33323652
97	0xbfeb5b02	-1.8387148
98	0x401e9864	2.4780512
99	0x40a167ba	5.043912
100	0xc0455142	-3.0830846
101	0x41354b45	11.330876
102	0xbfd651e4	-1.6743741
103	0xbf86e0bf	-1.0537337
104	0x41897f22	17.187077
105	0x3f9539ac	1.1658225
106	0x40841f38	4.128811
107	0xc1aff223	-21.99323
108	0xc1780572	-15.501329
109	0x4185c892	16.722935
110	0xc137e588	-11.493538
111	0xc1498e48	-12.597237
112	0xbe058919	-0.1304058
113	0xc11a764c	-9.653881
114	0x3fde8b56	1.7386272
115	0xc0cfd547	-6.494785
116	0xc02c65b6	-2.693708
117	0xc09146bf	-4.539886
118	0x4084249d	4.1294694
119	0xc0eb99d4	-7.362528
120	0x41876adc	16.927177
121	0xc099a410	-4.801277
122	0xc027f291	-2.62418
123	0xc0c79039	-6.2363553
124	0xc040320e	-3.003055
125	0xc1172e25	-9.448766
126	0x40c7bf95	6.2421365
127	0xbdbdf0ff	-0.09274482
128	0x4164ac98	14.292137
129	0x402d6103	2.7090461
130	0xc053df4f	-3.3105047
131	0xc1b5b1bf	-22.71179
132	0x417b8569	15.720071
133	0xc174ae71	-15.292588
134	0xc10d7134	-8.8401375
135	0xc0d266f5	-6.575068
136	0x3ed83227	0.42225763
137	0x3edf0525	0.43558612
138	0xbf11a6be	-0.56895053
139	0xbf94f715	-1.1637903
140	0x3f8707a0	1.0549202
141	0x409494cd	4.643164
142	0xbf9a1e14	-1.2040429
143	0xbf8640d0	-1.0488529
144	0x410ef15b	8.933925
145	0xc1192f22	-9.574007
146	0x40fa0f0e	7.8143377
147	0x3f9e68a9	1.237569
148	0x3fe3b501	1.7789613
149	0xc05943a3	-3.3947532
150	0x3fb00093	1.3750175
151	0xc171c369	-15.110208
152	0x40c8f7ee	6.280265
153	0xc14e1701	-12.880616
154	0xbdd9474f	-0.10609304
155	0xc10c3ad3	-8.764361
156	0x40c72fa6	6.2245665
157	0x40482f68	3.1278934
158	0xc004e1ba	-2.0762773
159	0xc00da4b2	-2.2131772
160	0xbdeca227	-0.115543656
161	0xc0c0f826	-6.0302916
162	0x4040062e	3.0003772
163	0x405efd1c	3.4841986
164	0xc0bf7037	-5.982448
165	0x40d72769	6.723561
166	0x3dc988e8	0.09840566
167	0xc0879ad4	-4.23765
168	0x402c7943	2.6949012
169	0xc140e542	-12.055971
170	0x408cdc1d	4.4018693
171	0x4113788a	9.2169285
172	0xc084d148	-4.150547
173	0x40d01e38	6.503689
174	0x410a32ea	8.63743
175	0xc0a80046	-5.2500334
176	0x40585595	3.3802235
177	0xc14f2e7f	-12.948852
178	0x3feaedea	1.8353856
179	0x3f0f1580	0.5589218
180	0x3f64bdc9	0.8935209
181	0x414ac334	12.672657
182	0xc14b3140	-12.699524
183	0xbe843f7f	-0.25829694
184	0x3fd1c60a	1.6388562
185	0xbfa61643	-1.2975544
186	0x403b10b2	2.922894
187	0x400a64da	2.1624055
188	0xc004cb43	-2.074906
189	0xbe96594d	-0.29365006
190	0xbe67e251	-0.22644927
191	0xbf0b7001	-0.5446778
192	0xbe86973f	-0.26287267
193	0xbffe297e	-1.9856412
194	0xc09db817	-4.928722
195	0xc0bd212a	-5.9102983
196	0x3f9ee1f0	1.2412701
197	0xc0addd78	-5.4332848
198	0xc0a2ea74	-5.09112
199	0xc0512d66	-3.268396
200	0x3f9b001c	1.2109408
201	0xbf8fcb9a	-1.1234009
202	0xbddd6fca	-0.10812338
203	0xbf33868e	-0.7012719
204	0xbfc0f1c4	-1.5073781
205	0x3f61fdf4	0.88278127
206	0xc00a3557	-2.1595056
207	0xc03e3686	-2.9720778
208	0xc0ca0a53	-6.3137603
209	0xc17cc3ec	-15.7978325
210	0x4003c2f7	2.0587747
211	0xbfe03dcd	-1.751886
212	0xbf61fedf	-0.8827953
213	0xc054f8f9	-3.327696
214	0xc08f1d90	-4.4723587
215	0xc15e016b	-13.875346
216	0x3feb3576	1.837569
217	0x411ccf80	9.800659
218	0x40241bc5	2.564195
219	0xc18a0dbb	-17.256704
220	0x41566e37	13.401908
221	0xc18f2a9c	-17.895805
222	0xc1449940	-12.287415
223	0xc0fd8579	-7.922543
224	0x404fbf07	3.2460344
225	0xc0ba250d	-5.817023
226	0x40e1f3a8	7.060993
227	0xc07a6123	-3.9121788
228	0xc06da195	-3.7129872
229	0x4064936e	3.5714984
230	0xbf864dc8	-1.0492487
231	0xc053fedb	-3.3124301
232	0x401650f8	2.348692
233	0xc0fb6cba	-7.8570223
234	0xc09d4d8d	-4.9157166
235	0xc0cd5186	-6.4162016
236	0x41154db3	9.33147
237	0x41742491	15.258927
238	0xc114249e	-9.25894
239	0x40b05048	5.5098
240	0xc16fab07	-14.979255
241	0xc128b15c	-10.543301
242	0x3f3c33d6	0.73516595
243	0x40dde8e7	6.9346805
244	0xc05bbe41	-3.4334872
245	0x40652e2b	3.5809429
246	0x4048f821	3.1401446
247	0x3fa2b1c3	1.2710499
248	0x40cb3bb7	6.3510394
249	0xc0c48b44	-6.142
250	0x3ee6ef76	0.4510457
251	0xc08ceb19	-4.4036984
252	0xc03fb533	-2.9954345
253	0x3fa2e31d	1.272556
254	0x402a3827	2.6596773
255	0xc0212dbf	-2.5184171

lstm.weight_hh_l0 f4 [512, 128]
0	0xc04bbaad	-3.1832688
1	0xc0281e41	-2.6268466
2	0x403f3be8	2.9880314
3	0x3f7b831a	0.9824692
4	0xbe879713	-0.26482448
5	0x3d273d16	0.04082974
6	0xbf452311	-0.7700663
7	0x40310ac8	2.766283
8	0xc0062975	-2.0962803
9	0x403c8d1e	2.946113
10	0xc04d4977	-3.207609
11	0xbfba918b	-1.4575666
12	0x3f1a4296	0.6025785
13	0xbf0016a1	-0.5003453
14	0xbeb208c6	-0.3477232
15	0x3fa3f147	1.2808007
16	0x40010c80	2.016388
17	0xc0867ede	-4.2029867
18	0x3ee5db5f	0.4489393
19	0xbef08f6f	-0.4698443
20	0xc05dd85b	-3.4663303
21	0x3f8448fc	1.0334773
22	0xbd100302	-0.03515912
23	0x40258866	2.58645
24	0x3f7209ef	0.9454641
25	0xbeea30bc	-0.45740306
26	0xbfc6e094	-1.5537286
27	0xbfc0ac4b	-1.505258
28	0x4061c2be	3.5275111
29	0x3fa2d2b9	1.2720557
30	0xbf47c922	-0.7804128
31	0xc024a8bf	-2.5727994
32	0x3d14799e	0.036248796
33	0xc0a75210	-5.2287674
34	0x400442f1	2.0665858
35	0x40adb2cf	5.428077
36	0x408a0544	4.313143
37	0x3f76317c	0.9616926
38	0xbf1f9d3d	-0.623493
39	0xbf6d5a86	-0.9271625
40	0xbf57f13c	-0.8435247
41	0x3f4b0905	0.7931064
42	0x3f5e8d0f	0.8693399
43	0x3f9735aa	1.1813252
44	0x3f0a7510	0.54084873
45	0xc0092ea4	-2.1434717
46	0xbf81d7c1	-1.0143968
47	0xc052b465	-3.2922604
48	0xc04142aa	-3.0196939
49	0xbfc006f3	-1.5002121
50	0x4034336c	2.8156385
51	0xbe467060	-0.19378805
52	0xbf8d24c2	-1.1026843
53	0x3fd0f5d6	1.6325023
54	0xbe8d02c5	-0.27541175
55	0xbf6b3584	-0.91878533
56	0x3fb095b0	1.3795681
57	0x3f3973bb	0.72442216
58	0x40baf34d	5.8422
59	0x4001b568	2.0266972
60	0xbf8934db	-1.0719255
61	0x3fc3ca17	1.5296048
62	0xc018a917	-2.3853204
63	0xc0958ea2	-4.673661
64	0xc0096633	-2.1468627
65	0x3f8e0fb4	1.1098542
66	0xbf00f6be	-0.503765
67	0x3e9526c1	0.2913113
68	0xbec2edfd	-0.38072196
69	0xbf40d71f	-0.7532825
70	0xbf85e4e5	-1.0460478
71	0xbcb0983a	-0.021556962
72	0x3e8511f4	0.2599026
73	0xbe40b4c3	-0.18818955
74	0xbec57dd5	-0.38572565
75	0x3e97e6ab	0.29668173
76	0x3f20206f	0.6254949
77	0xbf0ff763	-0.5623686
78	0x3fcd606e	1.6045053
79	0x400da038	2.212904
80	0xc037db9c	-2.872779
81	0x3ff98d23	1.9496197
82	0xc0a44cd6	-5.1343794
83	0xbf31d49d	-0.6946505
84	0x3f52667f	0.82187647
85	0xc017cf5e	-2.3720317
86	0xc0daa176	-6.8322096
87	0x3fdb1bb6	1.7117832
88	0xc0a6818d	-5.2033143
89	0x40651f11	3.5800211
90	0xc009ed01	-2.1550906
91	0xc01be12b	-2.4356182
92	0xbe56c7c1	-0.20974638
93	0xc02ea994	-2.7291002
94	0xbfa3dc6c	-1.2801642
95	0x3f99b0d0	1.2007084
96	0x3e736fe4	0.23773152
97	0xc0a38191	-5.109566
98	0xbfc0b8cc	-1.5056396
99	0x3edf6996	0.43635243
100	0xbfb874e1	-1.4410669
101	0xbf4a47e1	-0.7901593
102	0xc067c1a7	-3.6211946
103	0x4081e374	4.0590153
104	0x3f87d0c9	1.0610591
105	0xc01927a0	-2.3930435
106	0xbf6e89f3	-0.93179244
107	0x3fb8c843	1.4436115
108	0xbfa5905f	-1.2934684
109	0x3ef055ef	0.46940562
110	0x3f1a5731	0.60289294
111	0x4021d551	2.5286448
112	0xbe467bc9	-0.19383158
113	0x4039c479	2.9026167
114	0x3f2a8882	0.66614544
115	0x3e82610f	0.25464675
116	0x404622ef	3.0958822
117	0xbe1a0cee	-0.15043995
118	0xc0625840	-3.5366364
119	0xc062f1d7	-3.5460107
120	0x3f578fbd	0.842037
121	0x3df6c9c0	0.120501995
122	0xc02e04a7	-2.719034
123	0x40170427	2.3596284
124	0xc084c0f6	-4.148555
125	0xbef88335	-0.48537603
126	0xc013ac16	-2.3073783
127	0x3fa56c74	1.2923722
128	0xbf521894	-0.82068753
129	0xbf5c6369	-0.8608919
130	0x40a1036e	5.0316687
131	0x3e3564e5	0.1771427
132	0xbde218e0	-0.11039901
133	0x3e373ea0	0.17894983
134	0xc056b911	-3.3550456
135	0x4015929f	2.337074
136	0x3f14fd78	0.5819926
137	0x3ef12d34	0.471048
138	0xbd5502e6	-0.052004717
139	0xb86b7be7	-5.614376e-05
140	0x3deef5f1	0.11668003
141	0x405501ca	3.3282342
142	0xbf8a1778	-1.0788412
143	0x3fcd7bc6	1.6053398
144	0x3f28cc0c	0.6593635
145	0xc0826063	-4.074266
146	0xbf679a41	-0.9046975
147	0xbf1fda3a	-0.6244236
148	0xc0813a13	-4.038339
149	0x3f2e896c	0.6817844
150	0x3f986ec6	1.1908805
151	0x401c34c8	2.4407215
152	0x40115907	2.2710588
153	0x3ebe5995	0.3717772
154	0x3f67f75d	0.9061182
155	0x3fd74072	1.6816542
156	0x4034a890	2.8227882
157	0x40343b92	2.816136
158	0xbed90df7	-0.42393467
159	0xc0005c0b	-2.0056179
160	0xbe63ad3a	-0.2223405
161	0xc09413d7	-4.627422
162	0x3fa78557	1.3087567
163	0x40a096f0	5.018425
164	0x403babba	2.9323564
165	0xbe86b549	-0.26310185
166	0x3d55f068	0.052231222
167	0xbea77f40	-0.32714272
168	0x3f80096d	1.0002877
169	0x3ec05151	0.3756204
170	0x3e94bd57	0.29050705
171	0x3f7c4353	0.9854023
172	0x3f7b6ab5	0.98209697
173	0xc0459134	-3.0869875
174	0x40500253	3.2501419
175	0xbf2fa82d	-0.6861599
176	0xbfc23c08	-1.517457
177	0xbfc4b8d8	-1.536891
178	0x3ef1cc73	0.47226295
179	0x3f08a745	0.53380233
180	0x3f9bf226	1.2183273
181	0x3fd55b65	1.6668516
182	0xbfbe98d2	-1.4890387
183	0x400930ff	2.1436155
184	0xbf5cf551	-0.86311823
185	0x3f19ebd2	0.6012546
186	0x409e969c	4.955885
187	0x3fede4b0	1.8585415
188	0xbfc74746	-1.5568626
189	0x40046086	2.0683913
190	0xc00fd495	-2.24735
191	0xc0316cc8	-2.7722645
192	0xbf3d5e0a	-0.7397162
193	0x3f6e37a8	0.93053675
194	0xbff020a3	-1.875996
195	0xbe7c2ce2	-0.24626496
196	0xbfdf4b24	-1.7444806
197	0xbe0e9b77	-0.13926493
198	0xbe21db12	-0.15806225
199	0x3e1318d7	0.14364944
200	0x3e2dfc34	0.16990739
201	0xbfb522c5	-1.4151236
202	0xbeaffecf	-0.3437409
203	0xc04c6fb5	-3.194318
204	0x3f5bb47e	0.85822284
205	0x3f2e3aa7	0.68058246
206	0x3f903a0e	1.1267717
207	0x3e90b5ab	0.28263602
208	0xbfe73762	-1.8063776
209	0x3fb7819b	1.4336427
210	0xc08beb0c	-4.3724422
211	0xbe3c4116	-0.18384203
212	0x3e554e1e	0.2083058
213	0x3f1207f9	0.57043415
214	0xc0aec155	-5.4611
215	0xc00d3509	-2.206362
216	0xc08e169c	-4.44026
217	0x4069ab90	3.6510963
218	0xbffdf720	-1.9841042
219	0xbe824d34	-0.25449526
220	0x3f237c88	0.63861895
221	0xc081a900	-4.05188
222	0x3e3c9b5b	0.18418638
223	0xbe180587	-0.14845859
224	0x3f37fdc1	0.7187157
225	0xc04b23af	-3.174053
226	0xbf38f41a	-0.7224747
227	0xbf0abee3	-0.5419752
228	0xbf585a73	-0.84513015
229	0x3e4ea613	0.2018054
230	0xc090b3b1	-4.521935
231	0x3fbffc2e	1.4998834
232	0xbf098ad4	-0.5372746
233	0x3f60c469	0.877997
234	0xbfe06a97	-1.7532529
235	0x4037b0be	2.8701625
236	0xbf61803e	-0.8808631
237	0x3f2f0fb8	0.6838336
238	0xbedb66ef	-0.4285197
239	0x3e4b4d6a	0.1985375
240	0xbfa3d9cb	-1.280084
241	0x40115dcc	2.27135
242	0x3fc098b5	1.5046602
243	0x3f2ac463	0.6670591
244	0x408f983e	4.4873343
245	0x3e11e43c	0.14247221
246	0xc060d9e1	-3.5132983
247	0xc03bd0ee	-2.934627
248	0x3f3d88b0	0.74036694
249	0x3f301e70	0.68796444
250	0xc021d401	-2.5285647
251	0xbf460f5d	-0.7736719
252	0xc06c5813	-3.6928756
253	0xbe4d3fc8	-0.20043862
254	0xbff6c5e9	-1.9279147
255	0x401b99e0	2.4312668

lstm.bias_ih_l0 f4 [512]
0	0x404f32ac	3.2374678
1	0x3f1914ec	0.5979755
2	0xc008133d	-2.1261742
3	0xbfc0d7cb	-1.5065855
4	0x3e9ac1c6	0.30225962
5	0xc08add57	-4.339519
6	0xbfc21516	-1.5162685
7	0xc0945a14	-4.635996
8	0x3f4d71ea	0.80251944
9	0x3fb86ae5	1.4407622
10	0xbfb62e92	-1.4232962
11	0xc00463f1	-2.0686
12	0xc00311da	-2.0479646
13	0x3f78583e	0.97009647
14	0xbfeaffdc	-1.8359332
15	0x3f54bb0d	0.83097917
16	0xbd40a222	-0.047029622
17	0xc095d1ef	-4.6818767
18	0xc00bb483	-2.1828926
19	0xbe747490	-0.2387259
20	0xbf8b37d3	-1.0876411
21	0x405a4a03	3.4107673
22	0xc0149163	-2.3213737
23	0xc08e1699	-4.4402585
24	0xbf9bb860	-1.2165642
25	0xbfd937a3	-1.6970104
26	0x405f7094	3.4912462
27	0x3fd8eed6	1.6947887
28	0xc08882db	-4.2659736
29	0xc08bede2	-4.3727884
30	0x3fe9a4a6	1.8253372
31	0xc08cc8fe	-4.399535
32	0xbfe3738b	-1.7769636
33	0xc08eee66	-4.4666014
34	0x400ec6b1	2.2308772
35	0x3d198e6a	0.037489332
36	0xbfe23860	-1.7673454
37	0xbfb8cbcf	-1.4437197
38	0x4023be6b	2.5584972
39	0xc0831385	-4.0961328
40	0x3ec200b2	0.37891155
41	0xc08fc6ac	-4.493002
42	0x3db18b61	0.086691625
43	0x3f29a8fd	0.6627348
44	0xc00dd9ab	-2.2164104
45	0xbfd70087	-1.6797036
46	0xbf3a57b0	-0.7279005
47	0x404766c6	3.1156478
48	0xc05797fb	-3.3686512
49	0xc01aeb71	-2.4206202
50	0x3f9d9e86	1.2314003
51	0xc08a6703	-4.3250747
52	0x40165569	2.348963
53	0xc039eb48	-2.9049854
54	0x3efa47ca	0.48882896
55	0xbd4735b3	-0.048635196
56	0x407a5c2e	3.9118762
57	0xc088fb23	-4.2806563
58	0xc00805e3	-2.1253593
59	0xc08e455b	-4.4459662
60	0xc091747f	-4.5454707
61	0xbf2bbb19	-0.67082363
62	0xc0909bc5	-4.519015
63	0xbcb038fa	-0.021511544
64	0x4036442f	2.8479116
65	0xbf83b85c	-1.0290637
66	0xbfeee921	-1.8664895
67	0x4025f96a	2.593348
68	0xbfcf2eb8	-1.6186132
69	0xc087c11c	-4.242323
70	0xc08a70d1	-4.3262715
71	0x3fecc1bd	1.8496624
72	0x3eb3c62d	0.35112134
73	0x403ef6b6	2.983808
74	0x3f04e134	0.5190613
75	0xc01af5fd	-2.421264
76	0xbfb6ee49	-1.4291469
77	0x4108647c	8.524532
78	0x3ff23382	1.8921969
79	0xc088974b	-4.2684684
80	0xbee4bbad	-0.44674435
81	0x3f446553	0.7671711
82	0xc0938bc3	-4.6108108
83	0xc08ddcf0	-4.43322
84	0xbede0d14	-0.43369353
85	0x3e821131	0.2540374
86	0xbf94cef8	-1.1625662
87	0xbfd6fa86	-1.6795204
88	0xc090eebf	-4.529144
89	0xbfaf5a55	-1.3699442
90	0xbfdf9c62	-1.7469599
91	0xbfcdd49f	-1.6080512
92	0xc0754fb0	-3.8329887
93	0xbf10dbdc	-0.5658548
94	0xbfdab4a4	-1.7086377
95	0x3f70f4b0	0.94123363
96	0x3f9f5ac6	1.2449577
97	0xbfe0dae1	-1.7566797
98	0x3d94641b	0.07245656
99	0x3fb2ebf5	1.3978258
100	0xc010e4cd	-2.263965
101	0x40145e8d	2.318271
102	0xc07c4586	-3.9417434
103	0xbfb2ca0a	-1.3967907
104	0x406c665d	3.6937478
105	0xbff95b2b	-1.9480947
106	0xbfd4e212	-1.6631491
107	0xbfefcee9	-1.8735019
108	0x3e8d494f	0.27594993
109	0xc085b8aa	-4.178792
110	0x3ae812f7	0.0017705847
111	0xbfa38621	-1.2775308
112	0xbe6fe057	-0.23425423
113	0xc092c224	-4.586199
114	0xc0701f42	-3.7519078
115	0xc00ba69b	-2.1820438
116	0xbfd2f6a6	-1.6481521
117	0x3fe9c23e	1.8262403
118	0xc0976b5c	-4.7318554
119	0xbf9b197a	-1.211715
120	0xc0952573	-4.6608214
121	0xc08cca08	-4.399662
122	0xc08f3b76	-4.4760084
123	0x3f1563a1	0.58355147
124	0xc08f7cc9	-4.4839826
125	0x3edd13f4	0.43179286
126	0x3e1932a8	0.1496073
127	0xbfb21055	-1.3911234
128	0xbe9f9ba3	-0.3117343
129	0xbfb27ef7	-1.3944997
130	0xc000ed97	-2.0145013
131	0xbfcb27b7	-1.5871495
132	0xbfae7f0d	-1.3632523
133	0xbf8b4af3	-1.0882248
134	0xbf4825d9	-0.7818275
135	0xbf918c24	-1.1370893
136	0xbfa65f8d	-1.299791
137	0xbf8674cd	-1.0504395
138	0x3fff5044	1.994637
139	0xbf970cd2	-1.1800787
140	0x4019e1d8	2.4044094
141	0xbf74da52	-0.9564563
142	0xbfa267cb	-1.2687925
143	0xbf5d2053	-0.8637745
144	0xbf811b3e	-1.0086439
145	0xbfa3c0f8	-1.2793264
146	0xc00379f4	-2.0543184
147	0xbff38b08	-1.9026804
148	0xbf80b6d4	-1.0055795
149	0xbf5922a5	-0.8481849
150	0x3e625e08	0.22106183
151	0xbf9085dd	-1.1290852
152	0x3d7dcc28	0.061962277
153	0x4033d41e	2.8098216
154	0xbf38399d	-0.7196291
155	0xbf60781c	-0.8768327
156	0xbfc7f598	-1.5621824
157	0xbfbefd72	-1.4921095
158	0xbf80f0a5	-1.0073439
159	0xbfda46d4	-1.7052865
160	0x4028bfe0	2.6367111
161	0xbf9ce689	-1.2257854
162	0xbf5b4fd0	-0.8566866
163	0xbfa299f3	-1.2703232
164	0x4007e03d	2.1230614
165	0xbf6140ad	-0.8798931
166	0xbf67b4df	-0.9051036
167	0xbfad2773	-1.3527664
168	0xbf9704ba	-1.1798317
169	0xbf9f239e	-1.2432745
170	0xbf7f1d8e	-0.9965447
171	0xbf50f418	-0.8162246
172	0xc05027db	-3.2524326
173	0xc06687b1	-3.602032
174	0xbf8a8607	-1.0822152
175	0xbf569f96	-0.8383726
176	0xbf49d073	-0.78833693
177	0xbfeb1df9	-1.8368522
178	0xbf4925f4	-0.78573537
179	0xbffc2a54	-1.9700418
180	0xbf6e2c66	-0.93036497
181	0xc028c924	-2.6372766
182	0xbf701d1d	-0.93794423
183	0xbfb5c3f3	-1.4200424
184	0xbf32869b	-0.6973664
185	0xbf80f4a3	-1.0074657
186	0xbcc2dba5	-0.023786375
187	0xbf8eebe0	-1.1165733
188	0xbfcf98d1	-1.6218511
189	0xbfa04df4	-1.252379
190	0xbf942101	-1.1572572
191	0xbfa47d23	-1.2850689
192	0xbf3b65e3	-0.7320234
193	0xbff9a04c	-1.9502044
194	0x3e471145	0.19440182
195	0xbf490d33	-0.78535765
196	0x3f52f991	0.8241206
197	0xbf8cfce8	-1.1014681
198	0xbfa45c9b	-1.2840761
199	0xbf5118d7	-0.8167853
200	0xbf523433	-0.821109
201	0xbf0b879a	-0.54503787
202	0xbfaee754	-1.3664346
203	0xbfb81718	-1.4382048
204	0x402dd6c0	2.7162323
205	0xbf576a2b	-0.84146374
206	0xbf5ed2dd	-0.870405
207	0xbf9828b9	-1.1887428
208	0xbf35d37d	-0.7102583
209	0xbfbce110	-1.4756184
210	0xbfb364a9	-1.4015094
211	0xbf97b6cd	-1.1852661
212	0xbf9f01ff	-1.2422484
213	0xbfd74983	-1.6819309
214	0x3f890fc8	1.0707941
215	0xbfbe89e9	-1.4885837
216	0xbf8c5d2e	-1.0965936
217	0x40291159	2.6416838
218	0xbfc8b85b	-1.5681261
219	0x403479a0	2.8199234
220	0xbfe45ce2	-1.7840846
221	0xbe8ec8dc	-0.2788762
222	0x401afe71	2.4217799
223	0xbf48fd81	-0.78511816
224	0xbf802af8	-1.0013113
225	0x40415785	3.0209668
226	0xbfaa102f	-1.3286189
227	0xbf850e4b	-1.0394987
228	0x3fb8b814	1.4431176
229	0xbf280e9d	-0.656473
230	0xbfbfd5bb	-1.49871
231	0xbfae8388	-1.363389
232	0xbf41d8f9	-0.757217
233	0xc00fba6a	-2.2457528
234	0xbf9e32b5	-1.2359225
235	0xbfcc5303	-1.5962833
236	0xbfcece38	-1.6156683
237	0xbfb1488f	-1.3850268
238	0xbf7f9b51	-0.9984637
239	0x3fe7dc3c	1.8114085
240	0xbf47a7dc	-0.7799051
241	0xbfb2c619	-1.3966705
242	0xbfe1094f	-1.7580966
243	0xbfb5da8c	-1.420732
244	0x40103156	2.2530112
245	0xbf542d79	-0.82881886
246	0xbf982e7c	-1.1889186
247	0xbfbfa50f	-1.4972247
248	0xbfb4ed97	-1.4135007
249	0xbf995865	-1.1980101
250	0xbf9a58bf	-1.2058333
251	0xbf650477	-0.8945994
252	0xbfdf1c4e	-1.7430513
253	0xbf263697	-0.6492705
254	0xbf6a48f2	-0.91517556
255	0x400f7b43	2.2418983

lstm.bias_hh_l0 f4 [512]
0	0x4053eca3	3.3113182
1	0x3f0d3288	0.5515523
2	0xc012521d	-2.2862618
3	0xbfc96d1e	-1.5736425
4	0x3e8159fa	0.2526396
5	0xc08d0fb0	-4.408165
6	0xbfd1761c	-1.6364169
7	0xc09699f7	-4.7062945
8	0x3f662169	0.8989473
9	0x3fb83170	1.4390087
10	0xbfbadadc	-1.459804
11	0xc00440d2	-2.0664563
12	0xbffa9427	-1.9576463
13	0x3f7889ea	0.9708544
14	0xbff304a5	-1.8985792
15	0x3f2fa568	0.68611765
16	0xbdd052d3	-0.101720475
17	0xc0978ddd	-4.7360673
18	0xc0125ac0	-2.286789
19	0xbeb0252f	-0.3440337
20	0xbf8949cd	-1.0725647
21	0x405f7408	3.491457
22	0xc00e6b2b	-2.225291
23	0xc08f6e98	-4.48225
24	0xbfafc6c9	-1.373254
25	0xbfe54b6e	-1.7913644
26	0x4060341e	3.503181
27	0x3fca69b7	1.5813512
28	0xc0882a05	-4.2551293
29	0xc087a470	-4.238823
30	0x3ff3ea1d	1.9055821
31	0xc08bbee7	-4.3670535
32	0xbfd5d7b8	-1.6706457
33	0xc08f5922	-4.4796305
34	0x400cb299	2.1984007
35	0xbdd0a16b	-0.10187038
36	0xbfe0790a	-1.7536938
37	0xbfb71883	-1.4304355
38	0x4028c609	2.637087
39	0xc08552c3	-4.1663527
40	0x3e8e6616	0.2781226
41	0xc091293f	-4.536285
42	0x3de7a5a1	0.11310888
43	0x3f15ca6f	0.58512014
44	0xc016c59a	-2.3558106
45	0xbfdb50be	-1.7134016
46	0xbf432008	-0.7622075
47	0x40481ff1	3.1269495
48	0xc059acbe	-3.4011683
49	0xc01e1e73	-2.4706085
50	0x3f9824ce	1.1886232
51	0xc08a83c1	-4.3285832
52	0x400f25a2	2.236672
53	0xc03ccc7a	-2.9499803
54	0x3ec742ae	0.3891806
55	0x3d340b6e	0.043956213
56	0x407f007d	3.9844048
57	0xc0875e6f	-4.2302775
58	0xc00d5504	-2.208314
59	0xc08def28	-4.435444
60	0xc08dd5d3	-4.4323516
61	0xbf45d9a2	-0.77285206
62	0xc090e9d4	-4.5285435
63	0x3bc464eb	0.0059934757
64	0x4036e806	2.8579116
65	0xbf815235	-1.0103213
66	0xbfef96fe	-1.8717954
67	0x4027c63b	2.621474
68	0xbfd516ff	-1.6647643
69	0xc089a772	-4.30169
70	0xc08a1b48	-4.31583
71	0x3ff2e488	1.8975992
72	0x3ea2992f	0.31757495
73	0x403ee773	2.9828765
74	0x3f174024	0.59082246
75	0xc01ade78	-2.4198284
76	0xbfb6abef	-1.427122
77	0x41097b47	8.592597
78	0x3ff9cab8	1.951499
79	0xc0854304	-4.1644306
80	0xbf0516da	-0.51987994
81	0x3f249329	0.6428705
82	0xc0921d82	-4.566102
83	0xc08cac68	-4.3960457
84	0xbeff0534	-0.49808657
85	0x3eb56cd0	0.3543458
86	0xbf9d997f	-1.2312468
87	0xbfeadc87	-1.834855
88	0xc091576c	-4.5419216
89	0xbf9ef8de	-1.2419698
90	0xbfefe42c	-1.8741508
91	0xbfdce128	-1.7256212
92	0xc077bf19	-3.8710387
93	0xbf00ba94	-0.50284696
94	0xbfdf94b9	-1.7467262
95	0x3f705e41	0.9389382
96	0x3f8f0fb0	1.1176662
97	0xbfe35876	-1.7761371
98	0x3d60a721	0.054846887
99	0x3fb83dfa	1.4393914
100	0xc010f7c4	-2.2651224
101	0x400e9456	2.2278037
102	0xc08000aa	-4.000081
103	0xbfb99440	-1.4498367
104	0x407161c9	3.7715933
105	0xbfeb93ba	-1.8404458
106	0xbfd2d826	-1.6472213
107	0xbfe57a47	-1.7927941
108	0x3e9f3eea	0.31102687
109	0xc0850f31	-4.1581044
110	0x3d1e13ad	0.038592983
111	0xbfab2e2e	-1.3373468
112	0xbea4a944	-0.3216039
113	0xc08f731a	-4.4828005
114	0xc0706cf7	-3.7566507
115	0xc00d7759	-2.2104094
116	0xbfcc49d2	-1.5960028
117	0x3ff444c6	1.9083488
118	0xc094cf4e	-4.6503057
119	0xbfa1f11b	-1.2651705
120	0xc09083bb	-4.5160804
121	0xc08bd01a	-4.369153
122	0xc0902a3d	-4.505156
123	0x3f0aed43	0.5426828
124	0xc09275c3	-4.576875
125	0x3edb921e	0.42884916
126	0x3e7a03df	0.24415539
127	0xbfc21734	-1.5163331
128	0xbecdec84	-0.4021951
129	0xbfb3d818	-1.4050322
130	0xbff1bea0	-1.8886299
131	0xbfbed26a	-1.4907963
132	0xbfa8047e	-1.3126371
133	0xbf8a11aa	-1.0786641
134	0xbf468d0a	-0.7755896
135	0xbfa0d58d	-1.256517
136	0xbf95b8c8	-1.1697016
137	0xbf8f6079	-1.1201316
138	0x3ffb3683	1.9626011
139	0xbf9bced8	-1.2172499
140	0x401f45d9	2.4886382
141	0xbf80b079	-1.0053855
142	0xbf93301f	-1.149906
143	0xbf39336d	-0.72344095
144	0xbf6fabe2	-0.9362165
145	0xbfa5ee07	-1.2963265
146	0xc00085b4	-2.0081606
147	0xbff5e3d4	-1.9210153
148	0xbf8465cc	-1.0343566
149	0xbf4e7762	-0.80650914
150	0x3e421144	0.18951899
151	0xbf8c32ea	-1.0953038
152	0x3cc8076f	0.024417607
153	0x4034ea3a	2.826796
154	0xbf376294	-0.71634793
155	0xbf698fa9	-0.91234833
156	0xbfd22deb	-1.6420263
157	0xbfc2ec2d	-1.5228325
158	0xbf79dc24	-0.9760153
159	0xbfdc40cf	-1.7207278
160	0x402feaf4	2.7487154
161	0xbf9dc584	-1.2325902
162	0xbf56f8e7	-0.83973545
163	0xbf93a888	-1.1535807
164	0x4008076a	2.1254525
165	0xbf6c6256	-0.9233755
166	0xbf6cbf99	-0.92479855
167	0xbfaf9390	-1.3716908
168	0xbf8f2694	-1.1183648
169	0xbfafe3aa	-1.3741353
170	0xbf858fd3	-1.0434517
171	0xbf49111a	-0.7854172
172	0xc04de071	-3.2168238
173	0xc064f6a0	-3.5775528
174	0xbf88c68b	-1.068559
175	0xbf70c25f	-0.94046587
176	0xbf63da4d	-0.89004976
177	0xbfda6a42	-1.7063677
178	0xbf4338b6	-0.7625841
179	0xc007fd1a	-2.124823
180	0xbf82b1f3	-1.0210556
181	0xc0291503	-2.6419075
182	0xbf7144ec	-0.9424579
183	0xbfad180f	-1.3522967
184	0xbf25ae58	-0.6471915
185	0xbf7c57de	-0.98571575
186	0xbddbb298	-0.107274234
187	0xbf897fd0	-1.074213
188	0xbfd37820	-1.6521034
189	0xbfac3f9d	-1.3456913
190	0xbf89e29b	-1.077228
191	0xbf92242c	-1.1417289
192	0xbf2c9693	-0.6741726
193	0xbff798c7	-1.9343499
194	0x3e1f06aa	0.15529886
195	0xbf5636b6	-0.8367723
196	0x3f483597	0.7820677
197	0xbf98a2e5	-1.1924711
198	0xbfa5a46f	-1.2940806
199	0xbf50a118	-0.8149581
200	0xbf37368a	-0.71567595
201	0xbf293561	-0.66097075
202	0xbfb9e4c4	-1.4522939
203	0xbfb9d55e	-1.451824
204	0x402cd93d	2.7007592
205	0xbf44740c	-0.76739573
206	0xbf79159e	-0.9729861
207	0xbf9ae7a5	-1.2101942
208	0xbf4171c6	-0.7556423
209	0xbfb56668	-1.4171877
210	0xbfab8b0f	-1.3401812
211	0xbf8f631c	-1.1202121
212	0xbf9ae52e	-1.210119
213	0xbfd617ae	-1.6725976
214	0x3f7a3d92	0.977502
215	0xbfb16451	-1.3858739
216	0xbf975181	-1.1821748
217	0x402ca9ea	2.6978707
218	0xbfc80d4c	-1.5629058
219	0x40343b7f	2.8161314
220	0xbfe39013	-1.7778343
221	0xbeb0532b	-0.34438452
222	0x401b7ca3	2.4294822
223	0xbf4a5e73	-0.7905037
224	0xbf6e9a2a	-0.93203986
225	0x404684ba	3.101851
226	0xbfb9d194	-1.4517083
227	0xbf72c6d0	-0.94834614
228	0x3fc5ebe9	1.5462619
229	0xbf28f3ba	-0.659969
230	0xbfb5383f	-1.415779
231	0xbfa71dfa	-1.3056023
232	0xbf3196e1	-0.6937085
233	0xc00bb1f0	-2.1827354
234	0xbfaad6a4	-1.3346753
235	0xbfcedb05	-1.616059
236	0xbfd463cd	-1.6592957
237	0xbfc68160	-1.5508232
238	0xbf7baa84	-0.9830706
239	0x3fe39eea	1.7782872
240	0xbf5e7ddb	-0.8691079
241	0xbfaeeec4	-1.3666615
242	0xbfe48685	-1.7853552
243	0xbfc77c45	-1.5584799
244	0x4010b598	2.2610836
245	0xbf5022da	-0.8130318
246	0xbf9a6747	-1.2062768
247	0xbfc236d7	-1.5172986
248	0xbfb901df	-1.4453696
249	0xbf931297	-1.1490048
250	0xbf9ad82b	-1.2097219
251	0xbf625b71	-0.8842078
252	0xbff37492	-1.901995
253	0xbf464d94	-0.77462125
254	0xbf79303e	-0.97339237
255	0x4013bc44	2.3083658

fc1.weight f4 [128, 128]
0	0x4015f25e	2.342918
1	0xc0203164	-2.5030146
2	0x40064d40	2.098465
3	0xc100cdef	-8.050277
4	0xc118676a	-9.525248
5	0xc09b9d2c	-4.862936
6	0xbf9691d8	-1.1763258
7	0xbfac2dc6	-1.3451469
8	0x40acef72	5.404229
9	0x40553113	3.3311203
10	0x400ac75b	2.1684177
11	0x40a9e1d4	5.308817
12	0x3f2c1d5d	0.67232305
13	0xbbdc7302	-0.006727577
14	0xc07f907c	-3.9931936
15	0xc02d78dd	-2.710502
16	0x3f8b7025	1.0893599
17	0x3fa30449	1.2735683
18	0xc007d444	-2.1223307
19	0xc03e16b7	-2.9701364
20	0xbe58810b	-0.21142976
21	0x3f959319	1.1685516
22	0x41091bcf	8.569289
23	0x3e987b7f	0.2978172
24	0xbe1d8f2b	-0.15386645
25	0x3ed5829e	0.41701216
26	0x405994c3	3.3997047
27	0x40da419d	6.8205094
28	0xc04cbfb4	-3.1992006
29	0xc0125726	-2.286569
30	0xc002e0e1	-2.0449755
31	0x40000d82	2.0008245
32	0x401fbd75	2.4959385
33	0x3f8e58e5	1.1120878
34	0x412bb1dd	10.730924
35	0x40920636	4.563258
36	0xc09224d0	-4.5669937
37	0xbff18801	-1.886963
38	0x40dbfc1f	6.8745265
39	0xbefaf5f1	-0.49015763
40	0x3f095fc4	0.5366175
41	0xbf72c48c	-0.94831157
42	0xc04e9fac	-3.2284956
43	0x40daeff5	6.8417916
44	0x40baa6b4	5.8328495
45	0x40a8a923	5.2706466
46	0x407fc21e	3.996223
47	0x4013f46e	2.3117938
48	0xbf3a82fd	-0.7285612
49	0xc0ebe9cd	-7.37229
50	0xc0db4c77	-6.853084
51	0xc062c6bc	-3.5433798
52	0xc04d8c3e	-3.2116847
53	0x3f8b6023	1.0888714
54	0xc065807e	-3.5859675
55	0x40c877ef	6.2646403
56	0xc0a9161f	-5.2839503
57	0x3edae874	0.42755473
58	0xbf6c5a46	-0.92325246
59	0xbf92d207	-1.1470345
60	0xbe361cd9	-0.17784442
61	0xc11142b0	-9.078781
62	0xbe82bab4	-0.25533068
63	0x40e3fc6c	7.124563
64	0x401799ca	2.3687615
65	0xc0aeb7a6	-5.459918
66	0xc070b2df	-3.7609174
67	0xc0c1755a	-6.045575
68	0x40ae9552	5.4557276
69	0xc0c506e9	-6.1570935
70	0x3f0a6062	0.5405332
71	0x408fb2b3	4.490564
72	0x40b92479	5.785702
73	0x406d264c	3.7054625
74	0x40884bbd	4.2592454
75	0x3faf331a	1.368747
76	0x3f893ab5	1.0721041
77	0xc0e90522	-7.2818766
78	0x3e63b7fa	0.2223815
79	0xbf229463	-0.6350767
80	0xbdb36f52	-0.08761467
81	0x3fd34719	1.6506072
82	0x3fe057df	1.7526816
83	0xc03466b1	-2.8187678
84	0x4030dfd1	2.7636607
85	0xc0aae3f5	-5.340327
86	0x409d0769	4.9071546
87	0x3e3b14f1	0.18269707
88	0x3fd5636f	1.667097
89	0xc06d40d9	-3.707083
90	0xc0958742	-4.672761
91	0xbf3801a2	-0.7187749
92	0x3f5119a7	0.8167977
93	0xbf94a2a6	-1.1612136
94	0x3eb4156b	0.3517259
95	0xbf370921	-0.71498305
96	0xc05de15c	-3.4668798
97	0x3ebf9f1c	0.37426078
98	0x409d4872	4.9150934
99	0x40534e99	3.3016722
100	0xbfe25491	-1.7682058
101	0xc0739290	-3.8058205
102	0x40156ccb	2.3347652
103	0xbf8d5d1a	-1.1044037
104	0xbeace85a	-0.3377102
105	0xc0e763d6	-7.230937
106	0xc1027b42	-8.155092
107	0xbf853c5a	-1.0409043
108	0x3fe6c791	1.8029653
109	0xc0a14ced	-5.0406404
110	0xc0d800fb	-6.7501197
111	0xc0902583	-4.504579
112	0x3f0212d6	0.5080999
113	0xc069cebc	-3.653243
114	0x40af8d4c	5.485998
115	0x412eaf4f	10.9178
116	0xbf9418be	-1.1570051
117	0xc003ffb3	-2.0624816
118	0xbf2eb8d3	-0.6825077
119	0x40142a36	2.3150764
120	0xbfd1b569	-1.6383487
121	0xbffa1e0d	-1.9540421
122	0x4012f052	2.295918
123	0x3f641b4f	0.8910417
124	0x3fb40ddc	1.406673
125	0xbfcec40a	-1.6153576
126	0x40ef5408	7.4790077
127	0xbe58e542	-0.21181205
128	0xc0869bb2	-4.206506
129	0xbfc3b2b4	-1.5288911
130	0x3f711cb5	0.9418443
131	0xbf0ce684	-0.5503924
132	0xbf35a4ff	-0.7095489
133	0x3cd243cb	0.025667092
134	0x404ff8ed	3.2495682
135	0x3ec33163	0.38123617
136	0x4083224e	4.0979376
137	0x40398851	2.898945
138	0xbdd4f2c2	-0.10397865
139	0x40823a58	4.069622
140	0xbfd9d91f	-1.7019385
141	0x3ff3f8fb	1.9060358
142	0x3eae31b2	0.3402229
143	0x3f494a08	0.7862859
144	0x401040de	2.2539592
145	0x3f18dbb1	0.5971022
146	0xbfd21638	-1.6413031
147	0x40893129	4.287251
148	0x3f84f735	1.0387942
149	0xc045357a	-3.081389
150	0x400bd4c5	2.1848614
151	0x3edb33b6	0.4281289
152	0xc007d0ef	-2.1221273
153	0x3f8c34a0	1.095356
154	0x403119d5	2.7672017
155	0x400506c5	2.0785382
156	0xbed40c20	-0.414155
157	0x3f7ee94b	0.99574727
158	0xc0933b3d	-4.600981
159	0xbf0812b3	-0.5315353
160	0x3f3f5594	0.74739957
161	0xbeef2582	-0.46708304
162	0xc0454480	-3.082306
163	0x3f1ec279	0.6201549
164	0xbf844d7c	-1.0336146
165	0xbfb1cc91	-1.3890554
166	0x40846d6c	4.138357
167	0xc01bb9e8	-2.4332218
168	0x401ec11b	2.4805362
169	0xbf8aede2	-1.0853846
170	0xc08b894f	-4.3605113
171	0x40474d45	3.1140912
172	0x408cb073	4.396539
173	0xbf5a3f76	-0.85253084
174	0x3f23692e	0.63832366
175	0x4094814d	4.640784
176	0xc014ad5e	-2.3230815
177	0x3f50bc4c	0.8153732
178	0xc0212627	-2.5179536
179	0xbe789c46	-0.24278364
180	0x3eb03b70	0.34420347
181	0xc0902af3	-4.505243
182	0x3f319afb	0.69377106
183	0x3f0a64aa	0.5405985
184	0xc01ba2c1	-2.4318087
185	0x3e46b970	0.19406676
186	0x404a7bc1	3.1638033
187	0x3e971f09	0.29515865
188	0x3e2b34d2	0.16719368
189	0x3e1e963a	0.15486994
190	0xbeae68d3	-0.3406435
191	0x407313ff	3.7980955
192	0xbfc971be	-1.5737836
193	0xc0dedf79	-6.9647794
194	0xbef24437	-0.4731767
195	0xc08d6a72	-4.419244
196	0xbf93217b	-1.1494592
197	0x3d273c17	0.04082879
198	0xbfb8f26b	-1.444898
199	0x409e6d7a	4.950864
200	0x3fe961af	1.8232936
201	0xbf9f1317	-1.2427701
202	0x40a69809	5.206059
203	0xbff3f78b	-1.9059919
204	0x40987eca	4.765477
205	0x3f2b5aa6	0.66935194
206	0x3f885c1e	1.0653112
207	0x3fa91f61	1.3212701
208	0x405dc1bb	3.4649494
209	0x40146a6e	2.318996
210	0x3e6c4ad2	0.23075417
211	0x3ced5796	0.028972428
212	0x401846d1	2.3793223
213	0xbf84736c	-1.0347724
214	0xbf876f64	-1.0580869
215	0x401b3448	2.425066
216	0xbf447968	-0.7674775
217	0x40902bb7	4.5053363
218	0xbf9fbd3b	-1.2479624
219	0x3f9fb61c	1.247745
220	0xbf9b0fdd	-1.2114216
221	0x402c3611	2.6908
222	0x3f8b5b5d	1.0887257
223	0x4007c110	2.1211586
224	0xc09298c4	-4.581148
225	0xbea79dc8	-0.32737565
226	0x40ac2807	5.379886
227	0x404eaa11	3.22913
228	0x3ff15fd0	1.8857365
229	0x4004dff0	2.076168
230	0x3ebe8361	0.3720961
231	0x3f38e090	0.72217655
232	0x3fe85c21	1.8153116
233	0x3ecc2ac6	0.39876384
234	0xbb1efba2	-0.0024258872
235	0x3f3e1aca	0.74259627
236	0x3ee3800f	0.44433638
237	0xbfa4c9cb	-1.2874082
238	0xc0186233	-2.3809936
239	0xbf855b98	-1.0418577
240	0xbf229e85	-0.6352313
241	0x3f42709c	0.7595308
242	0x3e654ca1	0.22392513
243	0xbe4c8175	-0.19971259
244	0x3fa27b3d	1.2693859
245	0x3fa9f48a	1.3277752
246	0xbebffbf2	-0.37496907
247	0xc0075083	-2.114289
248	0xbf8b0445	-1.0860678
249	0xbed7df88	-0.42162728
250	0xbe82398b	-0.25434527
251	0x3ff5eedc	1.9213519
252	0xbebdf10f	-0.37097976
253	0x40a0e81e	5.0283346
254	0x406ae86b	3.6704357
255	0xbfa6581f	-1.2995642

fc1.bias f4 [128]
0	0xc05eecf7	-3.4832132
1	0x3d4a507c	0.049393162
2	0xbf9f4b70	-1.2444897
3	0xbfc90011	-1.5703145
4	0xbf9b746f	-1.2144908
5	0xbf98c4a1	-1.1935006
6	0xbe0f07f2	-0.13967875
7	0xbdc34c04	-0.09535983
8	0xbddd687c	-0.108109444
9	0x3f66bb88	0.901299
10	0x3e8c42d6	0.27394742
11	0x3f8fa160	1.1221123
12	0xbdea2623	-0.11433055
13	0x3e8c7cff	0.27439114
14	0xbe6af79d	-0.2294602
15	0xbf1f6c55	-0.62274677
16	0xbe288632	-0.16457441
17	0x3dfa44e2	0.122201696
18	0xbd97feb4	-0.07421628
19	0x3f0ec21f	0.55764955
20	0x3c8e3c10	0.017362624
21	0xbe09cc6a	-0.13456884
22	0xbe18e510	-0.1493113
23	0xbccb30f1	-0.02480361
24	0x3dd45db3	0.10369434
25	0xbe7f1616	-0.24910769
26	0xbdb30419	-0.08741016
27	0xbe8f4ebb	-0.27989754
28	0xbf4cdd96	-0.80025613
29	0x3f27f4ec	0.65608096
30	0x3faf6be0	1.3704796
31	0x3e430a54	0.19046909
32	0x3f0059e1	0.50137144
33	0x3e801ec6	0.25023478
34	0xc006721c	-2.1007147
35	0xc0694a88	-3.645174
36	0x3f4dabb0	0.803401
37	0xbf00916a	-0.50221884
38	0xbe2385f4	-0.15969068
39	0x3e97305b	0.2952908
40	0xbe12c814	-0.14334136
41	0xbf771bd7	-0.96526855
42	0x3f3509f7	0.7071833
43	0xbf1456eb	-0.57945126
44	0x3f0e162d	0.5550259
45	0xc03dc42f	-2.965099
46	0xbd1788ea	-0.036995806
47	0x3e066b7f	0.13126944
48	0xbef9fcab	-0.48825583
49	0x3e3cf2c2	0.1845198
50	0xc0235117	-2.5518243
51	0xbdd58a08	-0.10426718
52	0xbf8b4b8e	-1.0882432
53	0xbf0b4ebb	-0.5441701
54	0x3df5eb76	0.12007801
55	0xbf76d226	-0.9641441
56	0xbf04954f	-0.51790327
57	0x3e245279	0.16047086
58	0xbffb056a	-1.9611027
59	0x3f725488	0.94660234
60	0xbdef73e3	-0.116920255
61	0xbe00be86	-0.12572679
62	0xbecf78fc	-0.4052199
63	0xbec1e284	-0.3786813
64	0x3d8239a6	0.06358652
65	0xbf81d42b	-1.0142874
66	0x3da47153	0.080294274
67	0x3f877610	1.0582905
68	0xbfcd9525	-1.606114
69	0x3f851938	1.0398321
70	0xbea5b57b	-0.3236502
71	0xbe760df0	-0.24028754
72	0xbf67d8fb	-0.9056546
73	0x3f2f4859	0.6846977
74	0xc095affb	-4.677732
75	0xbdf570bd	-0.11984394
76	0xbf157395	-0.5837949
77	0xbfcd5c80	-1.6043854
78	0xbf2441d4	-0.64162946
79	0x3f1f297a	0.62172663
80	0xbe040356	-0.12891898
81	0xbfb3881b	-1.4025911
82	0x3ef1cd25	0.47226825
83	0xbe0f550b	-0.13997285
84	0xbf0b4a25	-0.5441001
85	0xbea3e6ff	-0.32012174
86	0xbdda0048	-0.10644585
87	0xbe6b60ee	-0.22986194
88	0x3f02751c	0.50959945
89	0xc00b46e3	-2.1762016
90	0xbde9c992	-0.114153996
91	0x3f852aaf	1.0403651
92	0xbeb9f926	-0.36322898
93	0x3efcb152	0.49354035
94	0x3e5545ec	0.20827454
95	0x3f4a3aad	0.7899578
96	0xc007bf44	-2.121049
97	0xc052ebb9	-3.2956374
98	0x3e9341df	0.28761193
99	0x3f614922	0.88002217
100	0x3f2e9e9b	0.6821076
101	0xbfa26dad	-1.268972
102	0xbe54cee7	-0.20782052
103	0xbd0c3761	-0.0342325
104	0x3f3b6612	0.7320262
105	0xbe8a322e	-0.2699141
106	0x3ee525fc	0.44755542
107	0x3ecafed5	0.39647546
108	0x3ef1ba3e	0.47212404
109	0x3f90b220	1.130436
110	0xbde51053	-0.11184754
111	0xbed0e0f6	-0.40796632
112	0xbf7cad47	-0.987019
113	0xbf2c1cc1	-0.67231375
114	0x3df1181a	0.11772175
115	0xbef6c777	-0.48199055
116	0xbe3769f3	-0.1791151
117	0xbdce5f1c	-0.100767344
118	0x3f0718f4	0.5277245
119	0x3f5ba0ff	0.85792536
120	0xbdcd86da	-0.100354865
121	0xc039b2f7	-2.9015481
122	0xbeb06676	-0.34453171
123	0xbffbd427	-1.9674119
124	0x3e391dc5	0.18077762
125	0xc0229376	-2.5402503
126	0xbfeaf38e	-1.8355577
127	0xbde3ffeb	-0.11132797

fc2.weight f4 [4, 128]
0	0xc162f17d	-14.183957
1	0xc061d68b	-3.5287197
2	0xc0bb2ced	-5.849234
3	0x412f7ad4	10.967487
4	0xc0cafd05	-6.343386
5	0xc09e1164	-4.939623
6	0x3d1a5a7c	0.03768395
7	0xbd6c07eb	-0.05762474
8	0xbd83a1d3	-0.0642735
9	0x3f490ccc	0.7853515
10	0xbfc51261	-1.5396234
11	0xbfc7ca07	-1.5608529
12	0xc0825cdd	-4.073836
13	0x404328d3	3.0493667
14	0xc0613a65	-3.5191891
15	0xc0607d9d	-3.5076668
16	0x40a1fa20	5.061783
17	0xc083e51f	-4.121719
18	0x40870a1f	4.2199855
19	0xbf82fec7	-1.0234002
20	0xc0672323	-3.6115196
21	0x3bf453a3	0.0074562593
22	0xbd29bcf1	-0.041439954
23	0x3fd91158	1.6958418
24	0x4086a770	4.207939
25	0x4052cca2	3.2937398
26	0x3c5b09a3	0.013368997
27	0x404b54e6	3.1770568
28	0x40bfa704	5.9891376
29	0x3fae0051	1.3593847
30	0x4044075d	3.0629494
31	0x3f5ce069	0.8627992
32	0x40b9e144	5.8087482
33	0xc08ddd4c	-4.433264
34	0xc0332f80	-2.7997742
35	0xc121cac8	-10.112007
36	0x3f21baa0	0.6317539
37	0x3f77eec2	0.9684869
38	0x3b9e31ba	0.004827705
39	0xc0768710	-3.8519936
40	0x3b66bac7	0.0035206543
41	0xc062ec27	-3.5456636
42	0xbf8f80c1	-1.1211168
43	0xc04f9c92	-3.2439313
44	0xc00f9abb	-2.243819
45	0xc0e9de67	-7.3083987
46	0xc0231938	-2.5484142
47	0x40617209	3.5225852
48	0x401e674e	2.4750552
49	0x406b8214	3.6798143
50	0xc14a9716	-12.661886
51	0x3dac6cc1	0.08419181
52	0x412485ce	10.282667
53	0x3f714bf6	0.9425653
54	0x4034e7b4	2.826642
55	0xc0a08434	-5.016138
56	0xc044fd82	-3.077973
57	0xc03e1140	-2.9698029
58	0xc08a6584	-4.324892
59	0x405bbfa8	3.4335728
60	0xbda4a18c	-0.08038625
61	0xbbffa282	-0.007801355
62	0xc08c2150	-4.3790665
63	0xc034f467	-2.8274171
64	0x3ff29914	1.8952966
65	0x40ea7f6f	7.328056
66	0x4040c2b8	3.0118847
67	0x3f641725	0.89097816
68	0x405f8fa9	3.4931433
69	0xc04473aa	-3.0695596
70	0xc01fc1e5	-2.4962094
71	0x409720c1	4.7227483
72	0xc05b28c1	-3.4243624
73	0x4080488b	4.0088553
74	0xc12787a8	-10.470619
75	0xbd4113f9	-0.047138188
76	0x40936c84	4.6069965
77	0xc0c50752	-6.1571436
78	0xc06ea65c	-3.7289038
79	0xc0137011	-2.303715
80	0x3bd20c55	0.0064101615
81	0xc0a72b52	-5.224038
82	0xbf5cb12e	-0.86207855
83	0x3b4e77aa	0.003150443
84	0xc05c5212	-3.4425092
85	0x40aad147	5.3380466
86	0x4020b8d9	2.5112822
87	0xc0077111	-2.116276
88	0x407dfd83	3.9685981
89	0xc0cf4381	-6.47699
90	0xbd24df60	-0.04025209
91	0x3f7dc578	0.9912944
92	0xc0804144	-4.007967
93	0xc03ace1f	-2.9188306
94	0xc03d70d8	-2.9600124
95	0x4099913e	4.7989798
96	0xc0a12867	-5.036182
97	0xc0c98abf	-6.298187
98	0x3fe19077	1.7622212
99	0xc00ed0dd	-2.231498
100	0x3f675047	0.9035687
101	0xc0a0a046	-5.0195646
102	0xc04a7798	-3.1635494
103	0x40591a2d	3.3922226
104	0x3f1dd2aa	0.6164957
105	0xc03bae50	-2.9325142
106	0xc00713ac	-2.1105757
107	0xc017853f	-2.3675077
108	0x40c06f92	6.0136194
109	0xbf8f0e4e	-1.117624
110	0x3b7c0d4e	0.0038460079
111	0x402df722	2.7182088
112	0xc100260e	-8.009291
113	0x4084fed8	4.156109
114	0x40a0b430	5.0219955
115	0x4013505b	2.3017795
116	0xbd85eb57	-0.06539028
117	0x3cca6cde	0.024710115
118	0xbfcd1c83	-1.6024326
119	0x3f3ef865	0.7459777
120	0x3d819a2b	0.06328233
121	0xc11f827d	-9.9693575
122	0x3ee77fb8	0.4521463
123	0xc1002eab	-8.011394
124	0xbff56738	-1.9172125
125	0xc0e21fc0	-7.0663757
126	0xc0c7a18c	-6.23847
127	0xbdb1a06b	-0.086731754
128	0xc14576d7	-12.341514
129	0xc07cae24	-3.9481287
130	0xc09d1153	-4.908365
131	0x41330e79	11.191033
132	0xc0ce8aa1	-6.4544225
133	0xc0a34a7b	-5.102842
134	0x3d00a127	0.031403687
135	0xbc2dfced	-0.010619384
136	0xbab78b6c	-0.0014003343
137	0x3f2ceb2d	0.6754635
138	0xbfca5d9b	-1.5809816
139	0xc00762fa	-2.115416
140	0xc080a47f	-4.02008
141	0x4036d721	2.8568804
142	0xc074535d	-3.817588
143	0xc04f36fa	-3.2377305
144	0x40ab6a9f	5.3567653
145	0xc075a898	-3.8384151
146	0x40896a0b	4.2941947
147	0xbeb97ff3	-0.3623043
148	0xc0788daa	-3.8836465
149	0x3ce753cd	0.028238202
150	0x3d95a9d4	0.07307783
151	0x3fd3b2c5	1.6538931
152	0x40971919	4.7218137
153	0x403d5ebf	2.9589078
154	0xbd2b5a23	-0.041834008
155	0x4070d338	3.7628918
156	0x40e9ffdc	7.312483
157	0x3fcee5a7	1.6163834
158	0x405eb3c7	3.4797227
159	0x4008c1db	2.136832
160	0x40ae8b68	5.4545174
161	0xc087b659	-4.241009
162	0xc080d67b	-4.0261817
163	0xc103f3a3	-8.246982
164	0x3f30624d	0.68899995
165	0x40264df5	2.5985081
166	0xbd10f025	-0.03538527
167	0xc063009b	-3.546912
168	0x3ca9aaa4	0.02071125
169	0xc063d8be	-3.560104
170	0xbe863e55	-0.2621943
171	0xc01229b9	-2.2837965
172	0xc015819e	-2.3360362
173	0xc0ecbb0e	-7.397834
174	0xc0403a97	-3.003576
175	0x406457b8	3.567854
176	0x401ad26b	2.419093
177	0x4076e1c7	3.8575304
178	0xc1662bab	-14.385661
179	0xbd4162c6	-0.04721334
180	0x412af797	10.685447
181	0x3fa663ad	1.2999169
182	0x402558b4	2.583539
183	0xc09ab92a	-4.835103
184	0xc06c822d	-3.6954453
185	0xc03a5cd0	-2.9119148
186	0xc1062bee	-8.385725
187	0x4056183e	3.3452296
188	0xbd2fa18f	-0.042878684
189	0x3d05aee7	0.032637503
190	0xc094607f	-4.6367793
191	0xc000f1f0	-2.0147667
192	0x3fb89137	1.4419316
193	0x40bfaf97	5.9901843
194	0x40562a39	3.346327
195	0x3f3cc4bc	0.7373769
196	0x404f5878	3.2397747
197	0xc0439540	-3.0559845
198	0xc02c27b6	-2.6899238
199	0x40914657	4.5398364
200	0xc086aaa9	-4.2083325
201	0x40767f7c	3.851531
202	0xc11240a0	-9.140778
203	0xbd0a291f	-0.033730622
204	0x408b5cf1	4.3550954
205	0xc0b760b8	-5.7305565
206	0xc09c7dcb	-4.8903556
207	0xc011a6bc	-2.2758017
208	0xbc266940	-0.0101569295
209	0xc0a4acc7	-5.146091
210	0xbf85a370	-1.0440502
211	0x3c971c1d	0.018446023
212	0xc0793cbe	-3.8943324
213	0x40b3eff9	5.6230435
214	0x401944fe	2.394836
215	0xc02ee4de	-2.732719
216	0x404abff2	3.1679654
217	0xc0b62d68	-5.6930428
218	0x3d31968a	0.043356456
219	0x3f2e1a32	0.6800872
220	0xc082131f	-4.064834
221	0xc01b0fc1	-2.4228365
222	0xc02fcf78	-2.747038
223	0x40a8542b	5.2602744
224	0xc0a55ba4	-5.1674366
225	0xc0b3af8a	-5.615178
226	0x3fe27c45	1.7694174
227	0xc02c9ff8	-2.6972637
228	0x3f5a19b8	0.85195494
229	0xc084df04	-4.1522236
230	0xc054704e	-3.3193545
231	0x4061baab	3.5270183
232	0x3f3570ae	0.7087506
233	0xbfe1c888	-1.7639322
234	0xc0143237	-2.3155649
235	0xc022387f	-2.5346982
236	0x40bb402f	5.851585
237	0xbf3084e7	-0.6895279
238	0xbd52d778	-0.05147502
239	0x401b683d	2.4282372
240	0xc0f32173	-7.597833
241	0x40873038	4.224636
242	0x408f8b2b	4.4857383
243	0x4004142d	2.0637314
244	0xbb8d79ac	-0.004317483
245	0xbcae0e75	-0.021247128
246	0xc0159077	-2.3369424
247	0x3f19b822	0.6004659
248	0x3d76edaf	0.060285266
249	0xc113fb6f	-9.248885
250	0x3ff1c30f	1.8887652
251	0xc0ffefac	-7.998007
252	0xc01157a3	-2.270974
253	0xc0feb469	-7.9595227
254	0xc0ccdeb8	-6.4021873
255	0x3d1ba53c	0.037999377

fc2.bias f4 [4]
0	0x3f87adf6	1.0599964
1	0x3f608794	0.87706876
2	0x3f427b2e	0.7596921
3	0x3fc91645	1.5709921
